models/advgan_generator.pth (torch, 210650 bytes, 14 tensors)

main.0.weight f4 [128, 43]
00000000: 8ec9 8b3e 2142 84bd 295d bb3d 052d d83d
00000010: bbde 4e3e a7f1 c4bd 69a3 293e 58fc afbd
00000020: 99ac fbbd a5a0 233d 0380 0ebe 0b67 023e
00000030: 0f40 093e 1097 113e ac0c 2c3e 2906 c9bd
00000040: 2b09 143e a865 26be e73f 1cbd 3fdb 57bc
00000050: 859a b0bc df18 8cbd 7e1d cf3d 8d1c 163e
00000060: f2d1 8a3d 833f b1bd f2fc 893b c256 d7bd
00000070: 722d 66be d99c 193c 5344 b83d 5522 45be
00000080: 6c7a 0ebd d162 28bd fa63 353e d0b7 cc3d
00000090: b6a7 523d dd7b 483c 89b2 05be e963 963d
000000a0: c829 ad3c ca58 f83d 577b 253d 825d b4bd
000000b0: b2cb ed3d fbdd a5bd cd65 e0bb 24ea dc3d
000000c0: 01a8 12be 85c3 e6bd 482e 093d 199b 85bd
000000d0: 999f f7bd 6229 5bbd 0808 c5bd a7f8 48bb
000000e0: 02b2 c03d f675 39be d954 f6ba c27b a8bd
000000f0: c1f1 1bbe ad1f 943d bbd3 623d 8d8f 683d
00000100: a07f bfbc 5b31 ebbd 29ef da3d 0a75 603c
00000110: 5544 adbc 2267 09be 6d9e 943d ae48 e13d
00000120: 7c9e 5c3c c0b5 fb3c e5b7 4dbd f326 73bd
00000130: 5b91 2dbd e386 fe3c 9e4d 153e cbdb 04bd
00000140: 1c84 edbd 4381 17bd 13d6 e5bd f8d4 88bd
00000150: ffce 0bbd 6f66 0c3d 253b 30bf 306b ebbd
00000160: 6fa6 bd3c c98d 31bd 6619 73bd ab83 803d
00000170: 1ee5 ac3d a904 ae3e 54e4 4fbe 55c0 8a3d
00000180: 953b adbe 324f 2f3d e085 883d 59c0 853d
00000190: 9de3 bb3d ab6f d43d 184a 1ebe c56f 7fbd
000001a0: b4a8 7cbd 8836 973d 37c9 443d 6f95 b6bd
000001b0: 4889 b73d 291b 81bd 5761 0ebe 5a43 e53d
000001c0: 6972 993e d79e 763e 0b77 cf3e 0ec5 ddbd
000001d0: 61ea 2e3d fb6f e2bc ba31 a43d ab7c cd3d
000001e0: 57c6 d03d b097 063f 033a 5b3e 13da d5bd
000001f0: 4420 843d 5525 933c e1d0 05be f8ec 873d
00000200: fc6f 343e 5e1c 353e de9e 193c b046 85bd
00000210: 9cc2 fe3d 0656 b73c 92d5 b3bd 01f9 df3c
00000220: af67 eb3c 5e81 a53d 2c55 adbc f783 373e
00000230: 3810 b4bd 1fe2 843c 7f6e 363e 2409 4b3d
00000240: 88e0 1dbd ddcb fcbb 443f 22be 77e7 c4bd
00000250: ff85 9fbc 0cab 853c 9fda 84bd a793 f2bc
00000260: 9279 9c3d f8d5 c9bd 2305 ad3d 6ad0 70bb
00000270: 8c08 223e e0eb c0bc c101 1abd e40b 5dbd
00000280: 8ef0 963d 35a5 26be a1ae f6bc ebee c5bd
00000290: 5e93 c9bd 6608 0f3e 25e7 79bd ca8b a7bd
000002a0: 8123 04bd 81bf 0a3d 6382 493d 117f 473d
000002b0: 6017 9dbd ddcf cb3d 7b2c b1bc 1630 473d
000002c0: c52c e03d ba63 923d b7e6 eebd 37e4 153d
000002d0: 1317 0abe 09a9 6abe 881b 8e3e d2f0 063e
000002e0: 8eee 88bd 5ded ce3d 2f54 cf3d 1a4d 2abe
000002f0: fc3d 0c3e b6b9 a9bd c597 06bd 8038 99bc
00000300: b311 b9ba b685 ea3d 0b55 15be ac91 36bd
00000310: c28d 89be bd00 133e 3026 0cbd 7795 d1bb
00000320: 292d f3bd 83d6 b2bd 6a3c 0e3d 4000 18bb
00000330: 37d3 9c3d 7067 6b3c f3b4 ddbc 50c4 e93d
00000340: e863 37bd acad 0c3e 53a2 27bc 8684 64bd
00000350: 6865 9cbd 4625 b43c 7523 b83d 7f8c 34be
00000360: e554 9fbc d4de 703d 3bfd 973d 0c1a 0ebd
00000370: 0cf9 0f3e cc2d 9f3d 36c2 ca3d b9fa 10be
00000380: f1bd 37be dd4c 29be 124b efbc eed8 3c3e
00000390: 3cd2 01bd c785 2e3d 6799 0c3e 2cc3 133e
000003a0: 4e2a 52bc 3ca1 1f3d 341a 453d 1dee d6bc
000003b0: 5e59 763d 52e5 c2bd cdb7 4dba 4c37 563d
000003c0: d357 0ebe 0aed 40bd f2df cebd 072b 223e
000003d0: ea9d f5bd 0c5e e93a 6ddd 77bd 6718 de3b
000003e0: 03bc 21bc a681 7bbe 0c3d 96be f62c a33c
000003f0: 1778 79bd e56e 3b3b be75 cb3d a880 d3bd
0.27302212 -0.064579256 0.09148628 0.10555462 0.20202152 -0.09616404 0.16566242 -0.085930526
-0.1228878 0.039948124 -0.1391602 0.1273462 0.13403343 0.14217782 0.16801709 -0.09815628
0.14456622 -0.16249716 -0.03814688 -0.013174831 -0.021558056 -0.06840681 0.10113047 0.14659329
0.06778325 -0.08654692 0.0042110616 -0.105145946 -0.22478274 0.009375774 0.08997407 -0.19251378
-0.03478472 -0.041109864 0.1771392 0.09995997 0.051429473 0.012236563 -0.13056387 0.07343275
0.021138087 0.1212631 0.04040083 -0.08806898 0.116111174 -0.0809898 -0.006848073 0.10786846
-0.14321901 -0.11267761 0.033491403 -0.06523723 -0.12090988 -0.053506263 -0.096206725 -0.0030665786
0.09408952 -0.18111405 -0.0018793597 -0.0822673 -0.1522894 0.07232604 0.055377703 0.056777526
-0.023376286 -0.11484023 0.106901474 0.013699779 -0.021150747 -0.13418248 0.0725678 0.11000191
0.01346552 0.030726314 -0.050224204 -0.059363317 -0.04237495 0.031070178 0.1458039 -0.032436173
-0.115974635 -0.036988508 -0.11222472 -0.066812456 -0.034132954 0.034277376 -0.6884025 -0.11495054
0.02315065 -0.043348107 -0.059350394 0.06275114 0.08442138 0.3398793 -0.20301944 0.06774966
-0.3383452 0.042800136 0.0666616 0.06530828 0.09174273 0.103728615 -0.15457952 -0.06236245
-0.061684325 0.07383448 0.048043456 -0.08915221 0.08961731 -0.063040085 -0.1390432 0.11194487
0.299701 0.2408403 0.4052051 -0.10828601 0.04270399 -0.027641287 0.08017297 0.10033544
0.1019408 0.52575207 0.21408848 -0.10441985 0.06451467 0.017962137 -0.13067962 0.06636995
0.17620844 0.17686602 0.009376256 -0.06507623 0.124394625 0.022379886 -0.0878097 0.027340414
0.028735964 0.080813155 -0.021158777 0.17921434 -0.08792156 0.016221104 0.17815588 0.049569264
-0.038544208 -0.007714732 -0.15844446 -0.09614461 -0.019473074 0.016316913 -0.06487011 -0.029611422
0.07640375 -0.098552644 0.084482454 -0.0036745318 0.15823573 -0.023549974 -0.03759933 -0.053966418
0.07370101 -0.16273959 -0.030112566 -0.096647106 -0.09842561 0.13968047 -0.061011452 -0.081809595
-0.03226042 0.03387404 0.049196612 0.048705164 -0.07670474 0.09951756 -0.021627655 0.048629843
0.10946039 0.071479276 -0.11665099 0.036594596 -0.13485365 -0.22916044 0.2775538 0.13177803
-0.06686126 0.10103867 0.101234786 -0.16630974 0.1369552 -0.08287375 -0.032859582 -0.0187037
-0.0014119655 0.114512846 -0.14583223 -0.044572517 -0.26865965 0.1435575 -0.034216106 -0.0063959914
-0.11873848 -0.08732321 0.034725584 -0.0023193508 0.076574735 0.014367923 -0.027063822 0.11414397
-0.044773012 0.13738126 -0.010231572 -0.055790447 -0.07636529 0.02199043 0.08991138 -0.1763172
-0.01944966 0.058806255 0.07421347 -0.03469281 0.14059848 0.07772407 0.09900324 -0.14158143
-0.1794355 -0.16533227 -0.029210601 0.18442127 -0.031694636 0.04260805 0.13730393 0.14429921
-0.012827469 0.038972124 0.048120692 -0.026236588 0.06014382 -0.09516396 -0.0007847518 0.05229883
-0.1390069 -0.047101058 -0.10101308 0.15836726 -0.1199301 0.0017804517 -0.060513902 0.0067778113
-0.009871486 -0.24561176 -0.2934345 0.0199189 -0.060905542 0.0028600034 0.09934567 -0.103272736

main.0.bias f4 [128]
00000000: 46d0 0ebd 4bb7 03be 5c10 193d 2873 713d
00000010: 170d 94bd f2fe 0cbd 60d3 a13c 4cc6 c9bd
00000020: e2ee 2ebd c818 8f3c 9c50 26bd c166 5c3d
00000030: c9fa 68bd c3f7 71bd 3748 a9bd 40bc 5abb
00000040: e6c1 183e ec05 d0bd bc95 47bd 102e 223d
00000050: 1872 883d 7c32 9cbb a1f6 a8bd 48ab 763d
00000060: dee7 8e3d c08f b43d 344f ed3d 1402 58bd
00000070: 19b1 0bbe 185b 163e 91b6 693d 50e7 513c
00000080: 6c58 f6bd 0101 ccbd 36a4 923d 4854 003e
00000090: 705c 61bd 7abb 07be 8ebf e6bd 35ad 04be
000000a0: 4c99 df3d 0660 28bd be64 d2bd 0f87 1c3c
000000b0: 8e7f b63d 002b d0bc 2035 e23d 6c15 d6bd
000000c0: 5ca8 06bd acf6 17bd 0821 d83d 88ce 833c
000000d0: bfe0 1d3b e5a3 88bd f8b9 a5bd 9816 3d3d
000000e0: 9e9a b63d dcec d33d b8e4 953d d288 25bd
000000f0: 0c11 143e 2872 853c d317 983b 7806 cabc
00000100: 5c4c 093e 5a0c 01be a08e 01bc 2460 c83d
00000110: 9aad 0bbe 4184 eabc cf8f ecbb 3908 16be
00000120: 02ef b5bd 8649 6bbd 3c84 003e 64d8 653d
00000130: 5e3a 0c3e 3cd3 0d3e d0d0 f03d 0d29 4c3d
00000140: dc53 d23d e463 9e3d aeed 7dbd 219f fabd
00000150: 5ec8 ebbd c290 023e fc8e 42bd f0fe 9e3c
00000160: 20e3 d73d 701c 523d 51f7 98bd 7439 bb3d
00000170: 2fb2 bbbd ed58 82bd 32b9 183e e409 df3d
00000180: eed8 bfbd bd45 8fbd e610 183e 3466 08be
00000190: 7129 2b3c b04d db3d a01c 773d a0e1 a9bc
000001a0: 58ec 9bbc 0c02 d93c 6ec2 cdbd c91c c13c
000001b0: 801f 8cbc f033 ee3d 2434 08be d5c3 14be
000001c0: 2e1d 29bd 5002 d93c e6a5 17be 90d5 64bd
000001d0: 36df 993d dcdc 9c3d d931 d3bb de45 27bc
000001e0: 30e4 de3c 8ae7 143e 9c11 213d 649d d23d
000001f0: a479 e93d 2e9d 6fbc be5d b2bd b00a e83d
-0.034866594 -0.1286289 0.037369117 0.058947712 -0.07229059 -0.034422822 0.019754112 -0.09852275
-0.042708285 0.017467871 -0.04060422 0.05380893 -0.056879792 -0.059074175 -0.08265727 -0.0033376366
0.14917716 -0.101573795 -0.048726782 0.03959471 0.06662387 -0.0047667604 -0.08250166 0.06022194
0.06977819 0.08816481 0.115873724 -0.052736357 -0.13641776 0.14683187 0.057058875 0.012811497
-0.12028584 -0.09961129 0.07160227 0.12532151 -0.055019796 -0.1325511 -0.11267005 -0.12956698
0.10917911 -0.0411072 -0.10273121 0.009553685 0.08911048 -0.025411129 0.11045289 -0.10453305
-0.032875404 -0.03710048 0.10553175 0.016089693 0.0024090258 -0.066718854 -0.08092111 0.046164125
0.0891621 0.10347912 0.07319015 -0.040413685 0.14459628 0.016289786 0.004641512 -0.024661288
0.13408035 -0.12602368 -0.00790754 0.09783962 -0.13640442 -0.028627517 -0.0072192918 -0.14651574
-0.08883478 -0.057443164 0.12550443 0.05611457 0.1369414 0.13850111 0.11758578 0.049843837
0.10269901 0.077338964 -0.061994247 -0.12237383 -0.115128264 0.12750533 -0.04749964 0.019408673
0.105413675 0.05129665 -0.07469047 0.09141818 -0.09164845 -0.063646175 0.14914396 0.10890558
-0.09367548 -0.069957234 0.14850196 -0.13320237 0.010446892 0.10708177 0.060330033 -0.02073747
-0.019033596 0.026490234 -0.1004685 0.023573296 -0.017104864 0.11631 -0.1330114 -0.14527829
-0.041287594 0.02649036 -0.14809379 -0.05586773 0.07513277 0.07659313 -0.0064451513 -0.010209529
0.027208418 0.1454145 0.039323434 0.10283926 0.11400154 -0.014624877 -0.08709286 0.113301635

main.1.weight f4 [128]
00000000: a648 7e3f 2899 243f 1337 983f 6921 643f
00000010: 8e0f bc3f 5856 a53f 9f5c 593f 3958 6a3f
00000020: bd84 633f b12e 9d3f 5f8a 673f bf20 6d3f
00000030: 822b 433f accf 8b3f 2036 f03f 0407 553f
00000040: 148a 763f 0fff 273f dadb 863f 1453 723f
00000050: 552f 233f 2ca6 913f 0a7a 733f c8cb c93e
00000060: fb12 b43f bbdb 0c3f 7c5d 043f 58b0 643f
00000070: fc89 8a3f d178 833f 81d0 313f 51cc 2d3f
00000080: 3b61 943f 17b4 ef3e d298 343f b4b8 933f
00000090: ab5d 613f 8eb2 953f ebcb 7b3f 8fb8 993f
000000a0: 8e11 4d3f 76bf d73e 502a 5a3f 64d2 8e3f
000000b0: 80b3 753f 5789 aa3f 56c6 653f 700d 773f
000000c0: acdd 863f 97af 9d3f 69c3 973f 362c 683f
000000d0: 4db0 893f 29b9 783f 6f0c 703f bad3 c73f
000000e0: f937 5b3f c7cc 7d3f 68e2 833f 7933 6a3f
000000f0: babb 423f d818 c83e d1fb 593f 7bbc 7c3f
00000100: 55e2 623f 7d42 283f 1508 143f a52c 813f
00000110: 4d0d 9b3f f803 6b3f 991b 733f d90d 363f
00000120: c30b 6c3f bc41 973f d815 863f 235c 713f
00000130: 35b1 543f 4fa0 673f a7b1 803f b0f8 873f
00000140: 70e0 393f a792 8a3f 5801 fb3e 996a 833f
00000150: 26bc 633f 858a bd3f 2b14 743f 6b06 503f
00000160: 6e70 673f 51b2 c83f e0f2 013f a24e 4f3f
00000170: a1c1 6f3f 6426 843f f1f0 ae3f b4be 0d3f
00000180: 4321 653f eec8 693f 3bf6 663f 1d0c 733f
00000190: ace1 2a3f 1148 2b3f c6d8 1e3f e223 613f
000001a0: c71e 7a3f 98b3 7d3f 8473 733f 5643 943f
000001b0: 5401 b33f 5302 823f 5639 2b3f 6895 cf3f
000001c0: 12e1 703f 2dd5 4d3f 79c0 e73f 50a2 7a3f
000001d0: 867b 6d3f 180f 9c3f 33cb 5f3f ad0c 5e3f
000001e0: 79df cc3f d3ce 933f 27b2 703f 8169 7f3f
000001f0: 57e3 9b3f 7d40 4d3f 595d af3f af9b c03f
0.993296 0.642962 1.1891807 0.8911348 1.4692247 1.2916975 0.84906954 0.9154087
0.8887442 1.2279874 0.9044551 0.9262809 0.7623826 1.0922751 1.8766518 0.8321383
0.9630444 0.65623564 1.0535843 0.9465802 0.637441 1.1378837 0.9510809 0.39413285
1.4068292 0.5502278 0.51705146 0.8933158 1.082336 1.0271245 0.69458777 0.6788989
1.1592172 0.46817085 0.70545685 1.1540742 0.8803355 1.1695116 0.9835803 1.2009448
0.8010491 0.4213826 0.85220814 1.1157956 0.9597702 1.3323163 0.8975576 0.9650488
1.0536399 1.2319211 1.185651 0.9069246 1.0756928 0.9715753 0.9376897 1.5611489
0.8563228 0.9914059 1.0303469 0.9148479 0.760677 0.39081454 0.85149866 0.987251
0.88626605 0.65726453 0.5782483 1.009175 1.2113434 0.9180293 0.94963986 0.7111488
0.92205447 1.1816936 1.0475416 0.94281214 0.83082896 0.90478987 1.0054215 1.0622768
0.7260809 1.0826005 0.49024463 1.0266906 0.88958967 1.4807898 0.95343274 0.81259793
0.9040593 1.5679418 0.5076122 0.8097936 0.9365483 1.0324216 1.366728 0.55369115
0.8950388 0.9132222 0.9021947 0.9494036 0.667506 0.6690684 0.6204952 0.8794538
0.9770321 0.99102163 0.9509814 1.1583049 1.398478 1.0156959 0.6688436 1.621747
0.9409343 0.80403405 1.8105613 0.9790392 0.92766607 1.2192106 0.8741943 0.8673809
1.6005698 1.1547493 0.9402184 0.9977036 1.2178754 0.80176526 1.3700362 1.5047511

main.1.bias f4 [128]
00000000: 8d9f 8c3d 8076 1bbe 04da 393e a0bd 13ba
00000010: 14cc 353e 6f3b 123e 22c5 9a3c 204c b03d
00000020: a2bb 5abd ecd1 ee3d fba5 91bc 187e fa3c
00000030: d5fb e4bc 928f a03e b8fb 613e e203 b83d
00000040: 7512 70bd 2371 60be 15cf 1bbe db12 c43d
00000050: cec9 32be 0a33 223c c331 db3d c107 05bd
00000060: 042b 383e ca38 53bc 137c 8ebe 6e2b d13e
00000070: 6471 1f3e b4c7 71bd 7005 8dbc c52e 3cbe
00000080: 0636 223e 8811 94be 15af ecbc 678d e73d
00000090: 0750 ce3d 0f78 b73d 6c4e 3a3e dca5 063e
000000a0: fcae 3e3c cb11 8ebe e7d4 4a3c 0f7a f83c
000000b0: 392c 843d 1d02 1b3e 5d68 cc3d 3b3d 6c3d
000000c0: 8c16 2c3d eee4 163e 3be8 523d 35b1 59bd
000000d0: 607f b73c 3dcc 763e b9de 03bc c879 363e
000000e0: 7896 4f3e e6f7 913e 3126 b03d 346c 923d
000000f0: 96a4 783e 4697 68be b08d 8c3b 2b8b 613d
00000100: c7ad e33d 2e2d 643e d3e6 5cbe 2396 e9bd
00000110: 79aa 353e f1ea 203d ab05 91bc 1f9a 9bbc
00000120: d644 fd3d 0cab 213d 9f14 663e a24a 913d
00000130: 1541 b03e c9c3 e7bc e3c6 fcbc 8cdf 4d3e
00000140: 0595 64bc 9a89 233e c9e3 6cbe ea07 8abd
00000150: 66fb ff3b d866 2f3e b876 8c3c 10ae 053e
00000160: 64c6 eebc 1d37 353e b48c 35be 260d dfbd
00000170: b62a 0c3d 1953 803e 8dda 413e 9482 26be
00000180: bfa5 1ebe 9994 523e cc20 6a3e 2eb5 943c
00000190: 4135 4e3e d879 72be 5b8b a63e b4aa fa3d
000001a0: a203 b5bd c544 113e a5b7 0cbd b69d 243e
000001b0: d196 353e df58 f73d 9bad cbbd f9a4 413e
000001c0: addb a03d 6c72 883e 8c7b 4c3e ad25 a33e
000001d0: 3c2d 86bc 840e 0a3e e35a cd3c b2d2 993d
000001e0: e576 423e 1684 bb3d 4122 ddbb c8a6 9a3d
000001f0: 1796 263c 6446 0dbe 8db8 2b3e 50ac 133e
0.068663694 -0.15181923 0.18149573 -0.00056358613 0.17753631 0.14280485 0.018892828 0.0860827
-0.053401597 0.11661133 -0.017779341 0.030577704 -0.027952114 0.31359535 0.2206868 0.089851156
-0.058611352 -0.21918158 -0.15215714 0.09573909 -0.17459795 0.009899864 0.10702851 -0.032478098
0.17985159 -0.012891958 -0.27829036 0.40853447 0.15570599 -0.059028342 -0.017214507 -0.18377216
0.15840921 -0.28919625 -0.02889208 0.11306267 0.10073858 0.08958446 0.18193978 0.13149208
0.011638399 -0.2774795 0.012379861 0.03033164 0.06453747 0.15137525 0.09980843 0.05767558
0.04201369 0.14735767 0.051491003 -0.053147513 0.022399604 0.24101348 -0.008048707 0.17819893
0.20272243 0.28509444 0.086010344 0.07149544 0.24281535 -0.22713956 0.0042893514 0.05506436
0.1111713 0.2228286 -0.21572427 -0.114055894 0.17740811 0.039286558 -0.017702898 -0.01899439
0.12366645 0.039469764 0.22468804 0.07094313 0.34424654 -0.0282916 -0.030856555 0.20104808
-0.013951545 0.1597046 -0.23133768 -0.06739791 0.0078119515 0.17129076 0.017146453 0.13054681
-0.029147334 0.17696805 -0.17729455 -0.1089118 0.03422042 0.25063398 0.18931027 -0.16260749
-0.15492915 0.20564498 0.22864074 0.0181528 0.20137502 -0.23679292 0.32528195 0.1223959
-0.088385835 0.1418639 -0.034354825 0.16075787 0.17733313 0.12077498 -0.09945222 0.18910588
0.078544 0.26649797 0.19969004 0.31864682 -0.016378991 0.134821 0.025067752 0.0751089
0.18990667 0.09156053 -0.006748468 0.07551342 0.01016762 -0.13796383 0.1676962 0.14421201

main.1.running_mean f4 [128]
00000000: eac7 b847 b882 3a47 61f1 c148 20c5 d247
00000010: 2b8a 3848 8788 2248 404b 12c8 cb45 d648
00000020: 5504 0fc7 5fc2 1d48 38bd 8847 020e 4b48
00000030: 3151 2949 617f 5bc8 2023 d248 337a a7c8
00000040: 4097 1c48 a9b5 b747 fd29 20c8 eb94 b747
00000050: 80c5 9648 c7e1 b148 4d3c 3248 9472 2547
00000060: 3b1d 8d48 b843 ad46 e0dd 9348 1777 67c8
00000070: ec30 9147 7a50 9bc7 e10c 9948 2531 2547
00000080: a76b ce48 0085 dd47 bbb6 9b47 c7bd 8947
00000090: af8d 8ec8 520b 3b48 44b0 e4c8 8fd8 9b48
000000a0: a267 9347 7122 5247 1290 1dc9 7f79 3347
000000b0: 7391 e7c7 2c22 8348 f889 92c8 77e3 0e49
000000c0: 5b9f 2548 33fc e047 0ff9 f148 e63c eac7
000000d0: 0324 9248 5e50 e8c8 612e c9c7 f2c7 3547
000000e0: afa2 a6c8 e914 2ec8 12e8 fb47 6a7e d048
000000f0: 15e2 eb48 0679 ce47 3c34 6747 9de7 0349
00000100: ad67 edc7 6311 7847 4d9c e6c6 afdb 7ec4
00000110: e30a 6648 f8d0 be47 ca74 0948 38b3 ea46
00000120: 0a0e 40c7 5c9a 0449 bc8f edc8 7dca 08c9
00000130: ed1d c947 40bf 1b48 54d1 ef47 fb38 97c8
00000140: dd4c 2f47 ace4 8a48 ec5f 2647 2e30 24c7
00000150: 0040 b747 ecc3 0e48 c21a cfc6 5bb2 22c8
00000160: f098 9148 4fd3 8547 1c28 3d48 b0e4 fc47
00000170: 56d3 dc48 c391 1cc8 038f bc48 8cd1 cf47
00000180: 81d9 5e47 5afb f8c8 6d76 54c7 579a c148
00000190: 46ff 7b48 1e82 1846 c2f8 10c7 8b16 e0c7
000001a0: b741 34c7 9b53 4cc8 e5bc f646 8cb7 ff48
000001b0: 0807 2d48 34df c547 1083 ae46 16f3 d447
000001c0: 471b c7c7 e0ca b7c8 535e 4648 f030 10c7
000001d0: 4d43 0a48 70ff 5347 a60f b0c8 a62f b2c7
000001e0: 9da9 dd47 f52b 7d48 bffb 5348 d020 7d48
000001f0: 3104 2448 4fbf 4647 c788 3448 a6ea c847
94607.83 47746.72 397195.03 107914.25 188968.67 166434.11 -149805.0 438830.34
-36612.332 161545.48 70010.44 207928.03 693523.06 -224765.52 430361.0 -342993.6
160349.0 94059.32 -164007.95 93993.836 308780.0 364302.22 182513.2 42354.58
289001.84 22177.86 302831.0 -237020.36 74337.84 -79520.95 313447.03 42289.145
422749.22 113418.0 79725.46 70523.555 -291949.47 191533.28 -468354.12 319172.47
75471.266 53794.44 -645377.1 45945.496 -118562.9 268561.38 -300111.75 585271.44
169597.42 115192.4 495560.47 -119929.8 299296.1 -475778.94 -103004.76 46535.945
-341269.47 -178259.64 128976.14 426995.3 483088.66 105714.05 59188.234 540281.8
-121551.35 63505.387 -29518.15 -1019.43256 235563.55 97697.94 140755.16 30041.61
-49166.04 543141.75 -486525.88 -560295.8 102971.85 159485.0 122786.66 -309703.84
44876.863 284453.38 42591.92 -42032.18 93824.0 146191.69 -26509.379 -166601.42
298183.5 68518.62 193696.44 129481.375 452250.7 -160327.05 386168.1 106403.09
57049.504 -509914.8 -54390.426 396498.72 258045.1 9760.529 -37112.758 -114733.086
-46145.715 -209230.42 31582.447 523708.38 177180.12 101310.41 22337.531 109030.17
-101942.555 -376407.0 203129.3 -36912.938 141581.2 54271.438 -360573.2 -91231.3
113491.23 259247.83 217070.98 259203.25 167952.77 50879.31 184867.11 102869.3

main.1.running_var f4 [128]
00000000: 5b86 2452 03f0 f451 82c1 3c54 dbb2 6952
00000010: 8011 4253 2357 1553 a681 d852 fd8c 5f54
00000020: 9bb8 d750 d5e7 1453 3b2e d751 a8e7 5153
00000030: 6205 0c55 7c1b 7f53 aa7b 6f54 e717 1954
00000040: c3b8 0a53 d513 9352 22f3 f252 8973 3952
00000050: 6918 ee53 b013 2654 8326 1f53 3064 f750
00000060: 9ca7 d653 4009 d850 b49e 0154 b05e 8553
00000070: b41f e051 9c89 a051 e6d5 f753 54f9 c851
00000080: 178d 5f54 2321 d052 f570 f451 ae74 c451
00000090: c49a cd53 cf15 7f53 2859 8254 d833 fd53
000000a0: 8b56 f851 f2cd 0052 dac4 f554 569b 5751
000000b0: df1f 8b52 648d b853 81af dd53 f690 cc54
000000c0: 8edc 0653 1d4a b852 1564 9054 a597 9852
000000d0: c221 e753 fc65 8f54 2294 4452 d43a 3f51
000000e0: 4b6a 0854 ef3c 0e53 dfa9 a452 07da 5854
000000f0: f3ee 8554 e02b c052 291c c651 e2eb ab54
00000100: 54ee 9652 5eda a951 7785 6b50 6914 0c4c
00000110: d212 7d53 464c 4352 81a1 bf52 c2b3 0851
00000120: 8770 4251 f64e b654 4400 8854 590c b854
00000130: 5c0a 4652 9d56 fd52 4b83 9852 c5fd e853
00000140: a027 4a51 b2d3 c153 d66b ac51 7e1e 4151
00000150: ce7e 6d52 c28c f652 4f16 1750 26b0 0953
00000160: 47f9 d753 9be5 d751 20ed 9e53 be12 dc52
00000170: bb76 7a54 f90a 0d53 8125 3554 0a31 ad52
00000180: 0c5e c251 3caf 9654 2f7c 3951 287d 3d54
00000190: 0614 9d53 5965 6a4f b76e fb50 7b69 7552
000001a0: 3037 2f51 42de 5753 4015 fb50 f559 a554
000001b0: a7c9 3953 9f70 6952 d5bd a350 34f2 8b52
000001c0: f969 0f52 692b 2a54 927e 6953 287f d250
000001d0: 38f0 0353 5e4c 9b51 0d55 1754 d040 4e52
000001e0: 6f1b 9452 bea6 a753 f93e 6b53 6c7c 9d53
000001f0: 7c00 5353 b149 aa51 01ec 2553 70fe 7f52
1.7665719e+11 1.3149984e+11 3.2428015e+12 2.5093202e+11 8.3351726e+11 6.4141204e+11 4.6494404e+11 3.8405724e+12
2.8953598e+10 6.3954466e+11 1.155242e+11 9.015347e+11 9.622172e+12 1.0956778e+12 4.1142877e+12 2.630124e+12
5.958053e+11 3.1584646e+11 5.217306e+11 1.9912683e+11 2.0452235e+12 2.8531795e+12 6.835459e+11 3.3204306e+10
1.84387e+12 2.8995879e+10 2.2268535e+12 1.1456385e+12 1.2032557e+11 8.618793e+10 2.1288911e+12 1.0789706e+11
3.8405792e+12 4.4695457e+11 1.3123339e+11 1.0547139e+11 1.7661297e+12 1.09558255e+12 4.4787323e+12 2.174993e+12
1.3332548e+11 1.3830275e+11 8.444557e+12 5.7876505e+10 2.9876758e+11 1.5852922e+12 1.9042645e+12 7.028843e+12
5.792259e+11 3.957587e+11 4.961235e+12 3.276896e+11 1.9854076e+12 4.9271307e+12 2.1107471e+11 5.1332858e+10
2.3435954e+12 6.1090765e+11 3.536123e+11 3.7254833e+12 4.6019164e+12 4.126849e+11 1.063595e+11 5.907175e+12
3.241218e+11 9.118913e+10 1.580557e+10 3.672106e+07 1.0869425e+12 2.0969957e+11 4.1152417e+11 3.669571e+10
5.219447e+10 6.2640703e+12 4.67296e+12 6.323849e+12 2.1264433e+11 5.4403993e+11 3.2751888e+11 2.0013799e+12
5.426551e+10 1.6649607e+12 9.2567945e+10 5.1840016e+10 2.5500867e+11 5.2946174e+11 1.0139287e+10 5.913658e+11
1.8552003e+12 1.1590876e+11 1.3651663e+12 4.7260362e+11 4.3029352e+12 6.057745e+11 3.1120732e+12 3.7192604e+11
1.0435019e+11 5.1774803e+12 4.9790775e+10 3.2553944e+12 1.3492916e+12 3.9325105e+09 3.3746696e+10 2.6350916e+11
4.7034073e+10 9.2714684e+11 3.369979e+10 5.6814307e+12 7.979521e+11 2.5065421e+11 2.1977016e+10 3.0053197e+11
1.5398956e+11 2.923491e+12 1.0028509e+12 2.825239e+10 5.666709e+11 8.3375145e+10 2.599868e+12 2.2146266e+11
3.180577e+11 1.440114e+12 1.0103738e+12 1.3527946e+12 9.062462e+11 9.14226e+10 7.126291e+11 2.7487135e+11

main.3.weight f4 [256, 128]
00000000: 862a 3d3d f755 a2bd 38f5 8fbd b775 593d
00000010: c76d 70bd 9351 7c3d 2a61 453d 9ad2 b63c
00000020: 1876 9ebd ae3b 8f3d dffb febc a3e1 d1bb
00000030: dbd8 26b9 d232 113e 941b 76bd 4336 87bd
00000040: 8752 083b c219 cebc 8713 db3c f849 b93d
00000050: e970 433d b894 693d 0d0f 87bd 3d46 143e
00000060: 7611 243d 5367 0d3e 8c61 01bd c731 67bd
00000070: 99da 90bc 059f eab9 f300 7c3d 3d14 bbbb
00000080: 3310 47bc a8a1 9dbc 3790 c03d f000 66bd
00000090: e351 793c a99d c8bb 9931 96bc 452b a73d
000000a0: 8670 26bc 7e31 a03d 2bb8 83bd 0316 b7bc
000000b0: 1e53 f13c 1c77 95bd b835 3abd a0cd c33d
000000c0: 6596 913d 2fb2 afbd 89e7 8a3c 54a9 963c
000000d0: 7a74 ebbb 13ec 7d3d a4dc 9bbd 5c01 0f3d
000000e0: 6432 2ebc 8d1f 1f3d 716d edbb 52cd 5fbd
000000f0: 131e 28bc 8a12 af3d c7e7 c73d 368f 793c
00000100: 1a4c 2cbb 2d49 053d 756f 0ebd b87b 853d
00000110: cbaa 66bd 45b7 0bbd e6d1 813c 9c25 dbbd
00000120: 887a db3b 7132 7abd 3738 53bc b55d af3c
00000130: eae4 c43b 2560 853c 54e8 863c a579 99bd
00000140: ba44 173d 66c7 ca3c 8074 ff3d 431f 77bd
00000150: c9f7 c23b c4ca 3abd 536e 7f3d 86ae cabc
00000160: 2ba8 823d e3f3 1dbc b847 cebb 1f65 bcbd
00000170: 949c afbc f019 e73d 0b22 893d bc08 8d3d
00000180: b600 d3bd 0c9f 343d 279c 853d 27ea 55bd
00000190: a2a5 0bbe 37d9 41bd d901 123d 8206 61bd
000001a0: 22d7 1bbe 8e58 f33d a4b9 bdbd e96a 32bd
000001b0: c52f ffbc 6c36 f7bd 1ae0 4d3d 9483 513d
000001c0: 487f 523d 5b95 d23c 3c82 183b 0a41 163e
000001d0: 5329 543b 6e60 18bb f835 9c3d b9cf f93c
000001e0: 26bb 86bd 7fdb 1f3c 0743 3a3d aa65 ddbd
000001f0: 0457 843d 4f0e cbbd 4e5a 57bc ec2e 18bc
00000200: 4583 503c e903 823c cdc6 b53d 6eba 273d
00000210: a124 9c3d 4a38 e13b 08a7 7d3c 78c0 88bd
00000220: b89b 7c3c 7dcb 6dbc eb01 56bd 13b1 003d
00000230: d1d5 01bd b2fd cd3d eca3 55bc 116c 473d
00000240: f3ac 0abd 85ff 893d 1c56 eeb9 440d 99bd
00000250: 3544 493d 760d ff3c e464 e33c 8b37 6abd
00000260: ed04 2c3d afaa 483d 2838 933c 655f 223d
00000270: 7129 cd3c 5f23 2b3e 94f8 14bd b13e 773d
00000280: 63d3 e13d 9fbb 53bc af64 d83c 6cdc 80bc
00000290: 1dcb 823d 7037 87bd 2812 1a3d 1aa3 a53a
000002a0: 77be 6dbd 66b1 7cbd 307f 1c3d 7bc4 af3c
000002b0: fb4a a3ba d3c4 913d 2254 133d 6150 9bbd
000002c0: eefb 02bc 5cca 203d 9dc3 16bc 11b1 64bd
000002d0: 1a6f bcbc b1d7 ec3c 28db 863d ad25 b7bd
000002e0: 2214 013d bf00 973c be38 473d 2968 3a3d
000002f0: 73e9 ff3b 3b71 203d 75d7 3b3d 7e98 583d
00000300: 088f abbd 0905 9cbd 3b71 883d 1c38 ffbd
00000310: 34b6 63bd ae62 aabd 9087 aa3c bb60 fb3d
00000320: 51f0 a6bc 0696 a0bd 1128 463d d82e 053c
00000330: 4e10 07bd 4d70 f2bd 593d 333d 00e2 ed3c
00000340: 091e 9fbd bc2f ad3b ebf2 463d 6290 583e
00000350: 89f9 a4bc 34e1 1bbd a3c9 753d 28bd 38be
00000360: 4eba f7bc fafe 8f3d 2410 6cbd 4e27 95bc
00000370: c0a7 00bc 8058 28ba 6b1d 05be d1fc 883d
00000380: ff9e 813d 0271 c33d 182f 65bc b5b7 863c
00000390: f286 b2bd 66d8 e43c 1dd2 d13d d30c 0bbd
000003a0: 571b 18bd 88df 4cbd 8215 17bd fec7 e1bd
000003b0: 36c0 f73b 6cc7 043e dbca febb ef24 adbb
000003c0: 95f6 c73d 4046 c43c 7b6a ccbd 9af3 9dbc
000003d0: de02 2f3d cb44 86bd afbe 7cbd 9c49 063e
000003e0: 9667 283d 5b96 1f3c 3b89 8abd 6acf a13d
000003f0: a86c d2bd 807f f03c d2fe 793c 2a35 30bb
0.04618313 -0.07926553 -0.07029194 0.053090777 -0.05869844 0.061601233 0.048188366 0.02231722
-0.07737368 0.06993805 -0.03112596 -0.006405072 -0.00015911779 0.14179543 -0.060084894 -0.066021465
0.0020801143 -0.025158767 0.02674271 0.090473115 0.0477151 0.057026595 -0.065946676 0.14479919
0.040055715 0.13808946 -0.03158717 -0.056443956 -0.01768236 -0.00044750437 0.061524343 -0.0057091997
-0.012149858 -0.019242123 0.09402507 -0.056153238 0.015217277 -0.00612231 -0.018334197 0.0816255
-0.010158664 0.0782194 -0.064316116 -0.022349363 0.029458579 -0.07298109 -0.045461386 0.09560704
0.071087636 -0.08578908 0.016956108 0.018391289 -0.007185516 0.061992716 -0.07610443 0.034913406
-0.010632131 0.03884845 -0.0072457124 -0.054639168 -0.0102610765 0.08548458 0.09761005 0.015231898
-0.0026290477 0.03254049 -0.034774262 0.06517738 -0.056315225 -0.034110326 0.015847158 -0.10700533
0.0066979565 -0.06108326 -0.012891821 0.021406988 0.006008734 0.016281197 0.016468205 -0.07493905
0.036930777 0.024753284 0.124733925 -0.060332548 0.0059499484 -0.04560353 0.062361073 -0.024741422
0.06379732 -0.009640667 -0.0062951706 -0.09198975 -0.021436967 0.11284244 0.06695946 0.068864316
-0.1030287 0.04409699 0.06523924 -0.05222526 -0.13637403 -0.047326293 0.035646293 -0.054937847
-0.15218785 0.11882125 -0.09263924 -0.04355899 -0.031150708 -0.12070927 0.050262548 0.051150873
0.051390916 0.025705984 0.0023270985 0.14673248 0.0032373264 -0.0023250836 0.07627481 0.030494558
-0.065786645 0.009756922 0.04547408 -0.108104065 0.064619094 -0.099148385 -0.013144089 -0.009288531
0.01272661 0.015871005 0.08875809 0.040949278 0.07624174 0.0068731653 0.015481718 -0.066773355
0.015417986 -0.014513847 -0.052247923 0.03141887 -0.03169805 0.10058154 -0.01303957 0.048687045
-0.033856343 0.067381896 -0.00045459054 -0.07473233 0.049137313 0.031134348 0.02775807 -0.057181876
0.041996885 0.0489909 0.017971113 0.039641757 0.025044175 0.16712712 -0.036369875 0.06036252
0.11026647 -0.01292315 0.026415197 -0.015730105 0.06386397 -0.06602371 0.03761497 0.0012637109
-0.05804297 -0.061692618 0.038207233 0.021455994 -0.0012458259 0.07117619 0.035968907 -0.075836904
-0.007994635 0.039255485 -0.009201911 -0.055832926 -0.023002196 0.028911443 0.065847695 -0.08942733
0.03151334 0.018432973 0.048638098 0.04550949 0.0078098117 0.039170485 0.045859773 0.052879803
-0.083768904 -0.07618148 0.06662222 -0.12461874 -0.055593684 -0.08319603 0.020816594 0.12274309
-0.020378264 -0.07841115 0.048378054 0.008128844 -0.032974534 -0.11837826 0.043759678 0.02903843
-0.077694006 0.0052852314 0.04857151 0.21148828 -0.020138519 -0.038056567 0.06000675 -0.18040907
-0.030240204 0.07031055 -0.05763258 -0.018207218 -0.007852495 -0.0006421879 -0.12999503 0.06688846
0.06329154 0.09543039 -0.013988279 0.01644502 -0.08717145 0.027935218 0.10245154 -0.033947777
-0.03713545 -0.050017864 -0.036885746 -0.110244736 0.007560755 0.12966698 -0.007775647 -0.005283944
0.09763829 0.023959279 -0.09981247 -0.019281197 0.042727344 -0.0655609 -0.061705288 0.13114017
0.041114412 0.009740437 -0.06764456 0.07900889 -0.10274631 0.029357672 0.015258508 -0.0026887157

main.3.bias f4 [256]
00000000: cfd2 8c3d 12b8 febc 11aa a7bc 0875 7ebd
00000010: afac a83d ee65 8cbd 4ee2 8d3d 2edb 38bd
00000020: b877 9a3d 0fed 2c3b 396a 77bd 1943 1e3c
00000030: 582f 4a3d 3d01 0d3d 8dca c4bc 6065 bebc
00000040: 0662 d2bc 9d81 8e3d 1a2f a33c 12b4 99bd
00000050: fec1 263d 205e 29bd 9f00 633d 4336 3fbc
00000060: 38b2 573d 1726 70bd 265e 7fbd ddc8 243d
00000070: 9326 813d d203 403d cbf6 ab3d ae5c 38bd
00000080: 360b 7c3c 0baa a3bb 3e26 ea3c 10c6 c7bc
00000090: d2de 8bbb d7ca a63c 427c db3c 900f a5bd
000000a0: 982e 3e3d 33a7 993d e8f3 a83d c0b4 b5bc
000000b0: cbe4 753d 1163 66bd 1ad9 843d 23fe 8cbc
000000c0: f116 a8bd fd03 1f3d c51f 34bc a6e9 17bd
000000d0: 9a5c 563d 3ad2 5abc 6f25 a33d d48c b1bd
000000e0: b90c b9bc e42e 7d3d 2038 1b3d f3bd 1d3d
000000f0: 7f66 db3c df2a 693d 3733 903d 2faa 493c
00000100: 5db5 1e3d 8436 45bd acec 6f3d 1fcf 8bbd
00000110: 2b82 6c3d d1c2 cfbc 9cac c4bb 044f a93d
00000120: c221 f43c f15b b0bd ad8e 5f3d dcb6 09bd
00000130: 07b1 6b3d 2247 8e3d 35a1 d3bb c38e afbd
00000140: 28a3 c4ba eae4 c2ba 89b1 d8bb 65e5 11bd
00000150: 9990 913b 1bb9 f83c eb37 d73c ab01 e83b
00000160: 46c9 0fbd a66c 57bd 0744 00bd 8e5a d13c
00000170: 6f96 523d af55 8f3d 736d 93bd cf83 8ebd
00000180: 4a67 50bd 4cd1 603d e999 373d 00f5 743b
00000190: e9bd 963d 7872 a43c 3014 693d 11eb a8bd
000001a0: 0d67 383d 0d69 1bbd 9c85 96bd 7a53 50bd
000001b0: 9fad 943d 1f48 64bd 1c85 2e3c d334 513d
000001c0: a95c ca3c 53c3 7f3d 7c16 85bd 44e0 f83c
000001d0: e0fe 23bb 46c5 973d 1b07 383d b051 7d3d
000001e0: 798b f53c 8700 fd3c 48d9 813c 60fb acbd
000001f0: 2dda c1bc ce8a 89bd bfff ad3d 0230 c63c
00000200: 7e90 84bd 0069 a43c e108 8bbd 6995 2cbd
00000210: 95f9 76bb 1b03 8e3d ccbe f3bc 7823 713d
00000220: 43e3 2c3d 682b d9bc 97d8 ebb9 3447 f73c
00000230: 5f15 8ebd 5acd adbd f520 b2bd e709 7cbd
00000240: 8b8c eebc a2a7 aebd 4c39 e9bc 7c47 97bd
00000250: a5b3 a23d 1345 e13c 22be 97bd 71ec 3abd
00000260: 6ef6 3c3d 430c df3c 67ff 55bd 8d25 a53d
00000270: 6afb c43c 6df4 353c 08f8 50bd 5168 bc3b
00000280: e07a 4cbd f97f 803d 3ced b0bc 78ef 9abb
00000290: 0d17 4a3d bc56 9e3c 54c6 8c3c e41d 1dbc
000002a0: 0301 95bd 57b3 5abd 48d2 a4bd c779 a4bd
000002b0: bd27 d7bb 6ce1 ec3b 0c7f 553d d259 803c
000002c0: 4f2e 47bd 355e 993d 0e20 9f3d 323c 673c
000002d0: cb95 173d 7e03 093d a5d7 0cbd 26fb fabb
000002e0: 2274 a83d a97e af3c fea7 3dbd 04bf a2bc
000002f0: 8580 a13d 328d ccbc 2950 97bd a8b5 aabd
00000300: 0779 46bd 9a61 b2bc 0d8a aa3d e479 71bc
00000310: ea67 b13d 1557 a4bd 7db5 793c 01c3 3d3d
00000320: ec8a 6a3d 990a 9f3d 832b 773d 94ea 883d
00000330: 11a2 4d3d dcc0 713d c8e0 55bd a4e3 03bc
00000340: 2304 603d 2659 51bd 6f67 013c 098a 49bd
00000350: 79d7 2b3d 8ade 9a3c 3914 4fbd 566c f43c
00000360: fcf1 d1bb 6e0d 043d 6156 713d caa3 253c
00000370: 315a 853d e959 c8bc e6d2 61bd 530f a4bc
00000380: 8dcd 70bd e54b a53d 0eb2 043c 7025 7f3d
00000390: 9ec5 033d 8b74 83bd 0f5c 0cbd e3fd 633d
000003a0: f90a b23c e1db a4bd 8a99 1abc 67c5 8cbc
000003b0: 91c3 e1bc feb1 cc3c 52d4 a63d 8e08 f93c
000003c0: 7b0e ef3c 027d 963d 2194 97bd 84c5 91bd
000003d0: 5c0c 22bc dd5d 57bd a9ac ec3c 0897 95bd
000003e0: 5b7b 33bd 474e 8fbd 50bd 9c3c 815d 883b
000003f0: 52e8 3cbd 6f3f e7bb 585a 50bd 9834 63bd
0.06876146 -0.031093631 -0.020466836 -0.06212333 0.08236062 -0.06855379 0.0692793 -0.0451309
0.07542366 0.0026386415 -0.060404036 0.009659552 0.049361557 0.03442501 -0.024022365 -0.023241699
-0.025681507 0.069583155 0.01991992 -0.07505049 0.04071235 -0.04134953 0.055420514 -0.011670652
0.052660197 -0.058630075 -0.062345646 0.04023062 0.063061856 0.046878643 0.083966814 -0.04501026
0.015383532 -0.004994636 0.028582688 -0.024386436 -0.0042685056 0.020360393 0.02679265 -0.08059609
0.046431154 0.07502594 0.082496464 -0.022180915 0.060032647 -0.05624682 0.06486721 -0.017211026
-0.08207501 0.038822163 -0.010993903 -0.03708806 0.052334405 -0.013355786 0.07966124 -0.08669439
-0.022589074 0.061812297 0.03789532 0.038511228 0.026782272 0.05692565 0.070410185 0.012308641
0.03874718 -0.048147693 0.058575317 -0.068266146 0.057741325 -0.02536145 -0.006002022 0.08267024
0.029801253 -0.086112864 0.054579426 -0.033621654 0.057541873 0.06947161 -0.0064584264 -0.085721515
-0.0015002238 -0.0014869247 -0.0066129607 -0.03561916 0.004442286 0.030361703 0.026271781 0.007080277
-0.03510406 -0.05259385 -0.031314876 0.025555875 0.051412996 0.06998765 -0.0719861 -0.06958734
-0.050879754 0.0548871 0.044824515 0.0037377477 0.07360441 0.020074114 0.056904018 -0.0824796
0.045020152 -0.03794198 -0.07349703 -0.05086086 0.07259678 -0.055732843 0.010651853 0.051075768
0.024702387 0.062442135 -0.06498429 0.030380376 -0.0025023744 0.07410674 0.04492865 0.06184548
0.029973732 0.03088404 0.015850678 -0.084463835 -0.023663605 -0.06715928 0.08496045 0.024192814
-0.06472872 0.0200696 -0.06788803 -0.042134676 -0.0037685384 0.06934186 -0.029754065 0.058871716
0.04220892 -0.026509956 -0.00044984065 0.03018532 -0.0693767 -0.08486433 -0.08697692 -0.06153288
-0.02911975 -0.08528067 -0.028469704 -0.073866814 0.07944421 0.027498757 -0.07409312 -0.045635644
0.04613345 0.027227527 -0.052245524 0.08063803 0.024045665 0.011105639 -0.05101779 0.00574974
-0.04992187 0.06274409 -0.021597497 -0.004728254 0.04933839 0.019328468 0.017184414 -0.009589646
-0.072755836 -0.053393688 -0.080479205 -0.0803104 -0.0065660165 0.007229021 0.052123114 0.01566783
-0.048628148 0.07488672 0.07769786 0.014113473 0.037008088 0.033450596 -0.034385342 -0.0076593338
0.082252756 0.021422701 -0.046302788 -0.019866474 0.07885841 -0.02496967 -0.07388336 -0.083354294
-0.048455264 -0.021775056 0.08327112 -0.014738534 0.08662398 -0.08024422 0.015241024 0.04632855
0.057261392 0.07765693 0.06034423 0.06685367 0.050203387 0.059021816 -0.05221632 -0.008049879
0.054691445 -0.05111041 0.007898196 -0.049203906 0.041953538 0.018904943 -0.050556395 0.029836815
-0.0064070206 0.03223937 0.058920268 0.010109851 0.06511343 -0.024456935 -0.05513277 -0.020026838
-0.05878978 0.08071116 0.008099092 0.062291563 0.032170884 -0.06418713 -0.03426748 0.055662047
0.021733748 -0.08049751 -0.009436021 -0.017183973 -0.027559074 0.024987217 0.08145966 0.030399587
0.02918171 0.07348062 -0.074013 -0.07117751 -0.009890642 -0.05257975 0.028890925 -0.073041975
-0.043818813 -0.06997352 0.01913324 0.004161537 -0.046119995 -0.0070571224 -0.05086741 -0.05547008

main.4.weight f4 [256]
00000000: f761 913f 014d 943f f33b 9d3f bbb0 9b3f
00000010: 7149 933f 7919 883f bbd8 903f d199 963f
00000020: 4412 953f cbc7 813f c28a 9f3f 047b a13f
00000030: 633d 933f d82d 873f df7a ad3f 094c 9e3f
00000040: 5438 903f 6e59 933f 8534 8d3f 524e 9c3f
00000050: 699f 8e3f 11ec 963f 10f0 943f 3d58 b13f
00000060: 1a52 953f d4dd 973f 13c3 923f d8a9 a43f
00000070: 46c3 913f 2bf0 a83f 6b26 a43f fed3 923f
00000080: 30a5 883f 900f 943f f0ac 8f3f 9db1 803f
00000090: 6500 8d3f b9bc 9c3f d71a a23f 99bf 8f3f
000000a0: 9afa a33f a2f1 943f a21e 9f3f d3e3 953f
000000b0: 46e3 8b3f 9263 8e3f d954 9c3f 81ba 873f
000000c0: 64d6 a73f 8d25 a33f bccd 903f 4249 8d3f
000000d0: 9741 9c3f 579b a43f cfe2 8b3f 59d8 873f
000000e0: 0ef5 a83f 6f19 873f 942b 9a3f b84a 9c3f
000000f0: 0137 a83f e71f 953f 2629 9b3f b2e5 983f
00000100: a1d3 8b3f 98b8 833f 5325 8d3f 4183 7c3f
00000110: cfc4 a13f 53f6 9d3f d083 863f 789b 903f
00000120: 82bf a23f 0198 933f b235 9e3f 239f 903f
00000130: 1ef5 853f 7a16 a43f 9b5f 903f b85d 983f
00000140: d5d3 8b3f bfa9 8e3f 2e66 993f 44f7 9a3f
00000150: 6a23 9d3f c961 8c3f 843f a53f f534 7f3f
00000160: 440e 9c3f 218a 9b3f 67f6 a53f 5010 8a3f
00000170: 3422 9c3f 135f 853f 1982 8d3f 7165 ab3f
00000180: c938 953f 3175 9b3f c110 833f 9c4f 8e3f
00000190: 3564 953f d816 8c3f 258b 893f 3130 9b3f
000001a0: 9aa6 8f3f 5f8e 9f3f 84df 863f 7e45 9d3f
000001b0: 33ca 8c3f b358 a53f 7ca2 983f 556a 903f
000001c0: dc4a 943f 1959 933f 4f75 a33f 9322 883f
000001d0: 7fed 8e3f b1e6 a73f 94d9 9c3f 9105 9b3f
000001e0: 8607 933f ece4 913f c0e3 893f 9509 9d3f
000001f0: d512 813f d531 8d3f f908 a73f 42d8 a83f
00000200: f31e a33f 56e0 983f eea1 a13f 467e 8f3f
00000210: 8105 a43f 474d 9c3f 1aa9 ad3f bd7b a23f
00000220: 5619 893f 53d1 8b3f 56cd 843f d468 9c3f
00000230: 86a2 a53f b966 923f 126a 973f f08b 8e3f
00000240: 3b28 9b3f 193c 9a3f c8b8 9d3f 42d9 823f
00000250: 2e15 8c3f d94f 9c3f 2a25 933f 0a83 a63f
00000260: 20bf a83f fc14 943f 61f6 863f 0152 893f
00000270: e7cc 9b3f 72d1 a13f bfaf 8a3f 55f2 933f
00000280: 9267 9a3f 1926 a83f c62b 813f 29cb 973f
00000290: b0bd 963f 2454 943f 5c68 6b3f 5236 9f3f
000002a0: 4a56 a23f 579d 933f 06c2 913f 3962 903f
000002b0: 2eab ab3f dec2 893f 8877 8d3f 2c01 a53f
000002c0: 602e a63f 1156 953f d46d 8e3f 5900 903f
000002d0: e3d7 863f cbfe 983f e2b7 8f3f 3846 953f
000002e0: 78c1 873f e72a 893f c663 853f d418 893f
000002f0: 4c20 7e3f f79c 8b3f 7cdd 893f e9ae 8d3f
00000300: 7d5e 903f a0bb 953f bde9 923f 59a4 8d3f
00000310: 63b4 913f 7853 8b3f d7a6 8b3f ac41 a63f
00000320: 6f1f a93f 0add 7d3f 7d26 ab3f e234 8b3f
00000330: dec4 a23f edb1 a13f a4ab ac3f 3c66 a53f
00000340: b023 9a3f 8dbf 743f 48ad 913f de3f 8c3f
00000350: 985a 8d3f 0aa7 9f3f 6f91 953f 1714 8d3f
00000360: ea88 a03f 945a a13f 5535 a23f dbe7 9b3f
00000370: 613c 913f 802e 9a3f 5011 a73f 64e9 883f
00000380: ecea 883f 84b6 803f eeba 9e3f 1b5c 973f
00000390: 5f25 8f3f 47a7 923f 4cc3 9f3f c577 8b3f
000003a0: 4d0d 9e3f 5f7b 953f 4c5b 8f3f fe0c 9d3f
000003b0: 7094 943f 5bed 973f 56dd 9a3f 204b a33f
000003c0: 48c6 8d3f 645c a23f c482 933f 7f64 9c3f
000003d0: 0371 a03f 1608 a53f 8f2c 8e3f 63cf a73f
000003e0: 10ca 953f 182c 963f 5eb8 9b3f 0a4e 843f
000003f0: cc6e 883f 7343 9c3f c525 8e3f 7eab 8f3f
1.1358021 1.1586 1.228392 1.2163309 1.1506788 1.0632774 1.1316141 1.1765691
1.1646199 1.0139097 1.246422 1.2615666 1.1503109 1.0560865 1.3553122 1.2366954
1.126719 1.1511667 1.1031653 1.2211401 1.1142398 1.1790792 1.1635761 1.3855053
1.166568 1.1864572 1.1465782 1.2864332 1.1387718 1.3198293 1.2824224 1.1470945
1.0675411 1.1567249 1.1224651 1.0054203 1.1015745 1.2245094 1.2664441 1.1230346
1.2810853 1.163624 1.2431223 1.1710151 1.0928733 1.1124136 1.2213393 1.0603791
1.3112302 1.2745835 1.1312785 1.1037982 1.2207516 1.2859906 1.0928591 1.0612899
1.3199785 1.0554637 1.2044549 1.2210302 1.3141786 1.1650361 1.2121933 1.1945097
1.0923959 1.0290709 1.1027015 0.9863778 1.2638186 1.2340797 1.0508976 1.1297445
1.2714694 1.1530763 1.2360137 1.1298565 1.0465429 1.2819359 1.1279176 1.1903601
1.0924021 1.1145552 1.1984308 1.210671 1.2276433 1.0967342 1.2910008 0.9969018
1.2191854 1.2151529 1.2965821 1.0786228 1.2197938 1.0419639 1.1055328 1.3390332
1.1657954 1.2145139 1.0239488 1.1118045 1.1671206 1.0944471 1.0745589 1.2124082
1.1222718 1.2465323 1.0536962 1.2286832 1.0999206 1.2917694 1.1924586 1.128245
1.1585345 1.1511565 1.2770175 1.0635551 1.1166228 1.3117276 1.22539 1.2111074
1.1486671 1.1397986 1.0772629 1.2268549 1.0083872 1.1030833 1.3049613 1.3190997
1.274382 1.1943462 1.2627542 1.121041 1.281418 1.2211083 1.3567231 1.2694012
1.0710857 1.0923256 1.0375164 1.2219491 1.2940223 1.1437598 1.1829245 1.1136456
1.2121652 1.204959 1.2322016 1.0222552 1.0943964 1.2211868 1.1495717 1.300874
1.3183327 1.1568904 1.0543939 1.0728151 1.2171906 1.2642043 1.0834883 1.1558329
1.2062857 1.3136626 1.0091484 1.1858875 1.1776638 1.1588178 0.91956115 1.2438452
1.2682583 1.1532391 1.1387336 1.1279975 1.3411615 1.0762594 1.1052103 1.2890983
1.2982903 1.166689 1.1127267 1.1250106 1.0534633 1.1952757 1.1227992 1.1662054
1.0605917 1.0716218 1.0421073 1.0710702 0.9926803 1.0907277 1.0770717 1.1069003
1.1278836 1.1697884 1.1477581 1.106578 1.1383175 1.0884848 1.091029 1.2988791
1.3212718 0.99165404 1.3371121 1.0875514 1.2716329 1.2632424 1.348988 1.2921824
1.2042141 0.95604783 1.1381006 1.0956991 1.1043272 1.2472851 1.1685008 1.1021756
1.2541783 1.2605767 1.2672526 1.2180132 1.1346551 1.2045441 1.3052158 1.0696225
1.0696692 1.0055699 1.2400796 1.1824983 1.118328 1.1457299 1.2481475 1.0895926
1.2347809 1.1678275 1.1199737 1.226959 1.16078 1.186931 1.2098796 1.2757301
1.1076136 1.2684445 1.1524282 1.2218169 1.2534488 1.2893093 1.1107348 1.3110164
1.170229 1.1732206 1.2165639 1.0336316 1.0658813 1.2208084 1.1105276 1.122421

main.4.bias f4 [256]
00000000: b560 763c 051f 603c 5565 7b3d 1d51 b5bd
00000010: 131a 17bd c116 85bc 9868 63bd 9e28 3fbc
00000020: 0bc9 dbbd e199 82bd 6400 873d 2141 133e
00000030: a4a3 163d 02d5 b9bd 96c7 d03d 5ec3 f63c
00000040: 536c 603c e3d1 003c f80e 25be ce75 debc
00000050: ae82 c5bc c4f2 c5bc 5d69 7bba 5b26 0a3e
00000060: 3f13 47bd 402d 9e3d ac96 64bd 358f 7ebc
00000070: f6a9 bdbd 0fc8 113e ed30 8d3c c143 f33a
00000080: 8754 7dbd a15b 253d ebf0 8ebd 075b 93bd
00000090: 2c3a 96ba 2a7a 243e 9c1e 2cbc 2d97 49bc
000000a0: 911a 633d 4159 cbbd 86da 373d 7c8e 2f3c
000000b0: 1e91 ddbb 845b 71bd eadf bf3c 58c6 83bd
000000c0: c1ff 833c f17a 003d affa 17bc 3457 31bd
000000d0: fd4d 94bb 451a 673d 6eb3 32bd 92e2 bdbd
000000e0: 1e47 a0bc 1eea 1dbd 1d5e 12bb 6094 afbd
000000f0: f4c2 853d 506c 413d 5cc5 793b be3e 8e3d
00000100: 4447 80bd fa0f 71bd ced9 663d 4ca0 03be
00000110: 23e3 2c3d b77f b63c d07f 38bd 042f a4bd
00000120: 1b20 3f3e 954c e6bc 5790 ee3c a7ba 8fbb
00000130: 4541 aebd c905 a03d fe7b e53a 3e11 283c
00000140: 6935 00bd abee 9c3c abc7 babb 0b3a 78bb
00000150: 2bd3 633c 13ca 02bd ef2d 0cbd a736 21bd
00000160: 32e3 17bc 9317 303d 681e 993d 0fe0 0b3d
00000170: 81a3 cbbd 06cf 7dbd 3cce 1bbd 737d df3d
00000180: a7dd 8abd d050 87bd 6801 8bbd b826 44bc
00000190: a571 1a3b 9176 59bb 6fee ccbd 9ef3 f63c
000001a0: 5a65 d13b 475e ab3d 1f04 26bd 52e5 783d
000001b0: b970 41bd 18e8 df3d 1b77 963c c2f2 a63c
000001c0: 4724 253d 69a9 3dbd 6e0b bbbc 042e ee3b
000001d0: 0227 8ebd 7735 8d3d b89f 5cbc 5f5b 283d
000001e0: 2453 cabd 6590 7fbc 4bc8 0abd b5e3 bbbd
000001f0: 9e13 d5bd d58b f3bd f02b 7f3d 9585 0e3e
00000200: 7c2f 1d3d f674 8fbc 9f44 14bd 0ff8 57bd
00000210: c8cb 7f3d b77d 0f3b 4d7e 6b3d 39c1 973b
00000220: 87cd 92bc f2b4 9f3c e723 8fbd c9b4 943d
00000230: b9d3 47bd 0e24 be3c 6fb2 1dbd 0252 01bd
00000240: 80dc c23c 0ad2 3d3c 5fa1 3c3c 17a0 d8bd
00000250: 15e8 3abd 7f21 fcbb 8529 7b3b aa3c ce3d
00000260: 1ba1 56bb cba6 da3b 0954 78bd 2f67 cabc
00000270: aac2 513d c7cc 5b3d 39a6 79bd a360 9cbc
00000280: 9bd9 8dbd be3e 273d fef8 8abd b664 8aba
00000290: 6c36 64bc 8127 2cbd 8dbf dabd be6d 933d
000002a0: 8dfb 393d ae01 243c a3bc d1bb cbb5 9abd
000002b0: 728e ea3d fae4 5ebd 7012 38bd bffa 1abb
000002c0: 06ae 4b3d f5ee 373d 2ead 86bd 51d6 e9bd
000002d0: ca1c 683c 369d 96bd a13d 413d eb1f 6fbd
000002e0: 5e77 bbbd f6cc bebd 05bd d2bd 9ea9 85bc
000002f0: c150 0ebe 17da d2bd d7ad 863b d1f4 3bbd
00000300: e515 e9b9 981b 19bc 2108 c6bc ba67 bfbd
00000310: 5ba4 e43c 799e 68bd d6ac 83bc 7966 283d
00000320: a2cf ee3d 5c41 17be 1fce 1d3e a236 d6bb
00000330: 8e4f 40bd a9a8 f03c a56a f73d 3471 d73c
00000340: c8f4 babd 15a1 97bd 7ece 9bbb 4eeb 10b9
00000350: e31f e1bc 1abf f03c bfc1 643c 98fc d43b
00000360: a174 d23c 2539 4e3d 56f5 e63d dc8c 543d
00000370: 86c7 03bd cb69 fc3c 7c43 9ebc 4086 c6bc
00000380: d26e 423c be73 dfbd cd81 8b3d 5629 08bd
00000390: 66bf b939 ce93 dcbc 15ee 733d a7b1 a6bc
000003a0: 7415 dc3d 0516 d1ba 1c0c 92bd 2deb 183b
000003b0: 080a 1c3d 95ab a53c 85f1 ab3d 8298 a9bd
000003c0: 94e0 1fbd 5a4a 833d 61f2 2d3d b578 e4bc
000003d0: 74a0 e13c b4e4 243d fa1b e63c 90c0 8c3c
000003e0: a039 2b3c 4726 903b 9b7e 4e3c b9d0 46bd
000003f0: a489 b1bd 1975 593d bb68 e4bd dc46 1dbd
0.015037705 0.013679271 0.061375935 -0.08853362 -0.0368901 -0.016246201 -0.05551967 -0.011667399
-0.10731705 -0.06377006 0.065918714 0.14380313 0.036777154 -0.09073831 0.10194318 0.030122455
0.0136977015 0.007862541 -0.16118991 -0.027155783 -0.024110164 -0.024163611 -0.00095905905 0.13491194
-0.04860234 0.077234745 -0.055807754 -0.015537073 -0.09260933 0.14236473 0.017235244 0.0018559621
-0.06184819 0.040370587 -0.06979545 -0.071950965 -0.0011461428 0.16062227 -0.010505345 -0.0123041095
0.055445258 -0.09929133 0.044886135 0.010715123 -0.006761684 -0.058925167 0.0234222 -0.064343154
0.016113164 0.031367246 -0.009276076 -0.043296054 -0.0045258985 0.056421537 -0.04362815 -0.092717305
-0.019565161 -0.03855335 -0.0022333928 -0.08573222 0.06531325 0.047222435 0.003811202 0.06945561
-0.06263593 -0.058853127 0.05636006 -0.12854117 0.042208802 0.022277696 -0.045043766 -0.0801678
0.18664591 -0.028112689 0.029121561 -0.0043862644 -0.08508543 0.078136034 0.0017508266 0.010258017
-0.031300936 0.019156775 -0.005700072 -0.0037876393 0.013905327 -0.031930994 -0.034223493 -0.03935876
-0.009270476 0.042991232 0.07476503 0.034149226 -0.09943295 -0.06196501 -0.038038477 0.109125994
-0.06780558 -0.06607211 -0.067873776 -0.011972122 0.0023566273 -0.0033182243 -0.10006415 0.030145463
0.006390256 0.08367591 -0.040531274 0.060765572 -0.04722664 0.1093294 0.01836734 0.020379428
0.0403178 -0.04630414 -0.022832599 0.007268669 -0.06941034 0.06894963 -0.013465814 0.041102763
-0.09879139 -0.015598391 -0.03388242 -0.09174291 -0.10404132 -0.11891905 0.06229776 0.13918145
0.038375363 -0.017511826 -0.036198255 -0.0527268 0.0624502 0.0021895 0.057493497 0.004631188
-0.017920269 0.019495461 -0.0698927 0.072610445 -0.0487859 0.023210552 -0.038500246 -0.03157235
0.023786783 0.011585722 0.011513083 -0.1057741 -0.045631487 -0.0076944227 0.0038324308 0.100701645
-0.0032749835 0.0066727153 -0.060627017 -0.024707405 0.051211037 0.053662088 -0.060949538 -0.019089049
-0.069262706 0.04083132 -0.06785773 -0.0010558579 -0.013928991 -0.04202986 -0.10681067 0.07198666
0.045405913 0.010010166 -0.006400661 -0.075542055 0.114529505 -0.054417588 -0.04493946 -0.0023647991
0.04972651 0.04490562 -0.06576 -0.11417831 0.01416702 -0.07354204 0.047177915 -0.05838005
-0.09153627 -0.09316437 -0.10289959 -0.016316231 -0.13897993 -0.102955036 0.004110079 -0.045887772
-0.00044457536 -0.009344958 -0.024173798 -0.09345956 0.027910402 -0.056791756 -0.016073626 0.04111335
0.116606966 -0.14771026 0.1541066 -0.0065372745 -0.04695087 0.029377298 0.12080888 0.026299097
-0.091287196 -0.07403771 -0.0047548404 -0.00013820568 -0.027481025 0.029388 0.013962208 0.006499838
0.025690379 0.050347466 0.11277263 0.051892146 -0.032172702 0.030812165 -0.019319288 -0.024233937
0.011867242 -0.10910748 0.06811867 -0.033242546 0.00035428553 -0.026925948 0.059553225 -0.020348383
0.10746279 -0.0015951997 -0.07131216 0.0023333535 0.038095504 0.020223418 0.083956756 -0.08281042
-0.039032534 0.06410666 0.04246748 -0.027889589 0.02754233 0.04025717 0.028089512 0.017181665
0.010450751 0.0043990943 0.012603427 -0.048538897 -0.08668831 0.05309019 -0.11152788 -0.038397655
