models/advgan_discriminator.pth (torch, 180042 bytes, 5 tensors)

main.0.weight f4 [256, 43]
0	0xbd071e9c	-0.032988176
1	0x3e2edddb	0.17076819
2	0x3e2446f2	0.16042688
3	0x3bc16f69	0.0059031737
4	0xbbbddda6	-0.005794245
5	0xba427659	-0.0007418148
6	0xbca4a14d	-0.020096445
7	0x3d8cf591	0.068827756
8	0xbbb61338	-0.0055564903
9	0x3dc00396	0.09375684
10	0x3d8d02b0	0.06885278
11	0xbd961d9c	-0.07329866
12	0x3dbf4820	0.093399286
13	0x3dccb86f	0.099961154
14	0x3c14b80a	0.009077081
15	0x3e023aa5	0.12717684
16	0xbb66aef9	-0.0035199507
17	0x3dc585fa	0.096446946
18	0xbdad8f28	-0.084745705
19	0x3bfd1502	0.0077234516
20	0xbe114364	-0.14185864
21	0x3d632fdc	0.055465564
22	0x3e06fd48	0.13182557
23	0x3d7fe92f	0.06247824
24	0xbdc17084	-0.09445289
25	0xbd57ba9c	-0.0526682
26	0x3d743060	0.059616446
27	0x3e116081	0.1419697
28	0x3e301cee	0.17198536
29	0x3e3cef54	0.18450671
30	0xbdcf6c2b	-0.10128053
31	0xbdc59f2e	-0.09649502
32	0x3c944f27	0.018104149
33	0xbe397037	-0.18109213
34	0xbd8cc338	-0.068731725
35	0x3d1d4476	0.038395368
36	0x3dd10505	0.102060355
37	0x3e122f69	0.14275898
38	0xbda8dc9c	-0.08245203
39	0x3d4fae53	0.050703358
40	0x3dae3b6b	0.08507427
41	0x3bbbabc7	0.0057272646
42	0xbc4f7b0a	-0.012663612
43	0x3de56d98	0.11202544
44	0x3deb6dc2	0.11495544
45	0x3da22d98	0.079188526
46	0x3dce1af1	0.100637324
47	0xbe4fbde0	-0.20287275
48	0x3d9c747f	0.07639407
49	0xbd893439	-0.06699414
50	0xbd4c83e3	-0.049930464
51	0xbe56bb83	-0.20969968
52	0x3d0ca519	0.034337137
53	0xbd964f03	-0.07339289
54	0xbd865fa3	-0.0656121
55	0x3d2103f4	0.03931041
56	0xbd0fcd0a	-0.03510765
57	0xbdaece15	-0.08535401
58	0x3d863601	0.06553269
59	0xbdb07e80	-0.08617878
60	0xbdb4ab8c	-0.088217825
61	0x3d218602	0.03943444
62	0x3d00ebb6	0.03147479
63	0xbd16154d	-0.036641408
64	0x3dff291a	0.124590114
65	0xbdb47b61	-0.08812595
66	0xbda0a614	-0.07844177
67	0xbd4dec26	-0.050274037
68	0x3c907c2f	0.01763734
69	0x3d82d831	0.063888915
70	0xbddd5660	-0.1080749
71	0x3c8a6f52	0.016898785
72	0xbe272fa9	-0.16326775
73	0x3d4662c9	0.048434053
74	0x3cb4001d	0.02197271
75	0xbd554c23	-0.052074563
76	0x3dd37147	0.1032434
77	0xbd7d20a2	-0.0617987
78	0xbe96205f	-0.29321572
79	0x3e065b9f	0.13120888
80	0xbe1fb134	-0.15594941
81	0x3db8390c	0.08995256
82	0xbddb578a	-0.10710056
83	0xbd670682	-0.05640269
84	0xbe02cf46	-0.12774381
85	0x3c6530f6	0.013988724
86	0xbd93075d	-0.07179139
87	0x3d1398aa	0.036034264
88	0x3b1f4785	0.0024304104
89	0xbe0a0653	-0.13478975
90	0x3a181ecb	0.00058029284
91	0x3d971dd2	0.07378735
92	0x3da80fe6	0.082061574
93	0xbe2fef82	-0.17181209
94	0xbdcd4071	-0.10022057
95	0x3d3d9700	0.046286583
96	0x3d5a776f	0.053336557
97	0xbe1f0f8d	-0.15533276
98	0x3d84289a	0.06453057
99	0x3d934698	0.07191199
100	0xbc4d57e0	-0.012533158
101	0x3d5b82c5	0.05359151
102	0x3df96163	0.12176778
103	0xbd99f9db	-0.07518359
104	0x3ca9ea51	0.020741614
105	0xbde54ebc	-0.11196658
106	0x3dc2d67e	0.095135674
107	0xbdb3849f	-0.0876553
108	0xbd226297	-0.039644804
109	0xbd980558	-0.07422894
110	0x3e1552f8	0.14582431
111	0xbde8ae6e	-0.11361395
112	0xbe1be1b4	-0.15222818
113	0x3cbd3509	0.023096578
114	0xbe36ba32	-0.17844465
115	0x3dbc0e55	0.09182421
116	0x3c8244cf	0.015901951
117	0x3cba3644	0.022730954
118	0x3da559d2	0.080737725
119	0x3abee7c0	0.0014564916
120	0x3daf1879	0.0854959
121	0xbbfa9f95	-0.007648418
122	0x3db7496d	0.08949552
123	0x3df1bed5	0.118039764
124	0xbd8a182c	-0.06742892
125	0xbe0340b4	-0.12817651
126	0xbc88c746	-0.016696583
127	0xbe0117da	-0.12606755
128	0x3e441f0d	0.1915247
129	0x3cd14f17	0.025550408
130	0xbdeeb6a5	-0.116559304
131	0x3d1fb141	0.038987402
132	0xbaab017b	-0.0013046706
133	0xbc0a1aa5	-0.008429204
134	0xbde5eaf5	-0.11226455
135	0x3d8df64f	0.06931745
136	0x3dce2a4c	0.10066661
137	0x3db5ca01	0.0887642
138	0xba6f13ab	-0.0009120057
139	0x3dd70e15	0.10500733
140	0xbdb9438e	-0.09046088
141	0xbca499a5	-0.020092795
142	0xbdc93b82	-0.09825803
143	0xbcf478f2	-0.029842827
144	0x3e1cb847	0.15304671
145	0xbd92cf2b	-0.071684204
146	0xbde98ae4	-0.114034444
147	0x3da51b5b	0.08061858
148	0xbd2292ab	-0.039690655
149	0x3dab38ec	0.08360466
150	0xbe1b201a	-0.15148965
151	0x3d871f9a	0.065978244
152	0x3d2f933c	0.042865023
153	0x3d86285f	0.06550669
154	0x3bd5ea3e	0.006528168
155	0xbdcc323d	-0.0997052
156	0xbe4c4812	-0.19949368
157	0xbcf87af8	-0.030332074
158	0xbc589f29	-0.0132215405
159	0xbd8448a8	-0.064591706
160	0x3da5951c	0.08085081
161	0xbc2eef0e	-0.010677112
162	0x3c822e1b	0.015891125
163	0xbdabc75f	-0.083876364
164	0xbe4fb66a	-0.20284429
165	0xbe3a8f94	-0.18218833
166	0xbdf80e53	-0.12112107
167	0xbba273ce	-0.0049576527
168	0xbe8cf793	-0.27532634
169	0x3dfc4039	0.12316937
170	0x3db17f07	0.08666807
171	0xbd68c05f	-0.056824084
172	0x3df2d3e8	0.11856824
173	0xbdd114e5	-0.102090634
174	0xbc774c9d	-0.01509395
175	0x3e3e8bbe	0.18607995
176	0x3c8119b0	0.015759319
177	0xbd8ba4f0	-0.06818569
178	0x3d53270b	0.051550906
179	0xbd60db19	-0.054896448
180	0x3de04d55	0.1095225
181	0xbe2b19c3	-0.16709046
182	0x3de792e2	0.113073125
183	0x3e529958	0.20566308
184	0xbd12ef2b	-0.03587262
185	0xbcb53416	-0.022119563
186	0x3dc660b5	0.09686414
187	0xbc40a910	-0.011759058
188	0xbc015242	-0.007893147
189	0xbd766b4e	-0.060160927
190	0xbc218561	-0.00985846
191	0xbdd6e725	-0.10493306
192	0x3df0526a	0.11734469
193	0xbd815603	-0.063152336
194	0xbcf0c300	-0.029389858
195	0xbcc8114a	-0.024422307
196	0x3ce7d14b	0.02829804
197	0xbd781425	-0.060566086
198	0xbd87e1af	-0.066348426
199	0xbc6eb93c	-0.0145705305
200	0x3d1f26f1	0.038855497
201	0xbd61cd39	-0.055127356
202	0xbdb073c5	-0.08615831
203	0x3c3137b5	0.010816504
204	0xbd988bd6	-0.074485466
205	0xbda0a300	-0.0784359
206	0xbd601a36	-0.054712497
207	0xbd345359	-0.0440248
208	0xbd559e18	-0.052152723
209	0xbc9ed10a	-0.019386787
210	0xbdf32bbc	-0.11873576
211	0x3df5f5f7	0.12009805
212	0xbc1c2b99	-0.009531879
213	0xbd343066	-0.04399147
214	0x3e2d0e3c	0.16899961
215	0xbac353a7	-0.001490225
216	0xbe3471f1	-0.1762159
217	0x3dc62a7a	0.096760705
218	0xbc81c6c7	-0.015841855
219	0x3d85be1a	0.065303996
220	0xbd269e1d	-0.040678132
221	0x3d922ff2	0.07138051
222	0x3d444c00	0.04792404
223	0x3ddbeb6b	0.10738262
224	0xbc4c9a7f	-0.012488007
225	0x3cfdc539	0.030977832
226	0xbd42a754	-0.047522858
227	0x3d561d0c	0.052273795
228	0x3c05323e	0.008129654
229	0x3d5647bb	0.0523145
230	0x3ddd7d1b	0.108148776
231	0xbdca2bd1	-0.098716386
232	0xbc347687	-0.011014587
233	0xbe3ea984	-0.18619353
234	0x3d7a69d0	0.061136067
235	0xbc511013	-0.01276018
236	0x3bfc28e4	0.007695304
237	0x3d957c08	0.07299048
238	0xbe1f5384	-0.15559202
239	0xbc03c201	-0.00804186
240	0xbcb85965	-0.022503564
241	0xbd094866	-0.03351631
242	0xbccaec7d	-0.02477097
243	0xbbb6170b	-0.005556946
244	0x3e4896e1	0.19588806
245	0xbca48d36	-0.020086866
246	0x3cb2722d	0.021782959
247	0x3e0ff17d	0.14056964
248	0x3e236a81	0.15958597
249	0xbb84685c	-0.004040761
250	0xbdd15230	-0.10220754
251	0x3cc07913	0.023495233
252	0xbd93128d	-0.07181273
253	0xbc95d282	-0.018288855
254	0xbe3a5a88	-0.18198597
255	0xbe6b6174	-0.22986394

main.0.bias f4 [256]
0	0x3e04f894	0.1298545
1	0xbd3905e3	-0.04517163
2	0xbd171197	-0.03688201
3	0x3d70b7ed	0.058769155
4	0xbd409da2	-0.04702533
5	0x3e1a54c2	0.15071395
6	0xbd942ac5	-0.0723472
7	0x3d74e347	0.05978706
8	0x3dc976cc	0.09837112
9	0xbce03a4b	-0.027371546
10	0x3c36c580	0.011155486
11	0xbcb3b747	-0.02193798
12	0xbe1548a0	-0.14578485
13	0x3da5848f	0.08081924
14	0x3da00ee6	0.07815342
15	0x3c727929	0.014799395
16	0xbcc4e26d	-0.02403375
17	0xbc967555	-0.018366495
18	0x3ccd951d	0.025095517
19	0xbd1290b5	-0.035782535
20	0x3c1d91be	0.009617267
21	0xbdc10c27	-0.09426146
22	0xbe1e1645	-0.15438183
23	0xbdd85f54	-0.105650574
24	0xbe2f7b8f	-0.17136978
25	0xbdb82528	-0.08991462
26	0xbdde43df	-0.10852789
27	0x3dde2ad8	0.108480155
28	0x3d94fcf9	0.07274813
29	0x3de45388	0.11148745
30	0x3d926aa9	0.0714925
31	0xbe0a4624	-0.13503319
32	0xbd37692b	-0.04477803
33	0x3e05ba08	0.13059247
34	0xbda3c335	-0.07996217
35	0xbe1050c9	-0.14093317
36	0xbe01702e	-0.1264045
37	0xbde5625b	-0.112004004
38	0xbe148c3c	-0.1450662
39	0x3decc58f	0.11561119
40	0xbd842526	-0.06452398
41	0xbe02a70d	-0.12759037
42	0xbb71bc4a	-0.003688591
43	0xbd42fceb	-0.047604483
44	0xbcbd5b5f	-0.023114858
45	0xbc5f916e	-0.013645513
46	0xbc49bfbc	-0.012313779
47	0xbd49dc28	-0.049282223
48	0xbd1b4c99	-0.037914846
49	0xbdc8a740	-0.097975254
50	0x388e14da	6.7749716e-05
51	0xbcbb102f	-0.022834865
52	0x3e4e7aae	0.20163986
53	0xbe060651	-0.13088347
54	0x3e2e5f91	0.17028643
55	0x3dc90e06	0.09817128
56	0x3e195442	0.14973548
57	0x3d19be21	0.037534837
58	0x3c13e672	0.00902711
59	0x3c8801ff	0.016602514
60	0x3d87f9a2	0.066394106
61	0x3dd65813	0.104660176
62	0x3dce1d3f	0.10064172
63	0xbe2c600c	-0.16833514
64	0x3d56d709	0.052451167
65	0xbda7a99e	-0.08186649
66	0xbde8298d	-0.1133605
67	0xbda88ecb	-0.082303606
68	0xbd623111	-0.055222575
69	0x3db0cb69	0.086325474
70	0x3db559b8	0.08855003
71	0x3deea734	0.11652985
72	0x3dd9e264	0.10638884
73	0x3daf146f	0.08548819
74	0x3dc31b9f	0.09526753
75	0x3e4c9cee	0.19981739
76	0x3d3bb9e3	0.045831572
77	0xbe232dde	-0.15935466
78	0x3ca38f45	0.019965777
79	0xbc52e3c6	-0.012871688
80	0x3d4417fa	0.04787443
81	0x3db19dda	0.08672686
82	0x3dee1194	0.116244465
83	0x3d479ee6	0.04873552
84	0x3cdcb4f2	0.02694175
85	0xbd7bbd7a	-0.061459996
86	0xbd599bcf	-0.053127106
87	0xbddac613	-0.10682311
88	0xbd5084f3	-0.05090804
89	0xbc5258a6	-0.012838518
90	0x3dfec63b	0.12440153
91	0x3deda98a	0.11604603
92	0x3e0319f4	0.12802869
93	0xbb3e89d9	-0.0029073863
94	0xbbade89f	-0.0053072716
95	0xbd693ad6	-0.056940876
96	0x3e4510d8	0.19244707
97	0x3daf7218	0.085666835
98	0xbda2415a	-0.07922621
99	0xbd90a657	-0.07062977
100	0xbd84b67e	-0.0648012
101	0x3de4af52	0.11166252
102	0x3dd91869	0.10600359
103	0x3dd66e55	0.10470263
104	0xbd319fee	-0.04336541
105	0x3daa68c5	0.083207645
106	0x3d2b0d01	0.04176045
107	0x3dfa5b09	0.12224395
108	0x3d21c858	0.039497703
109	0x3d481125	0.048844475
110	0x3c048a8e	0.008089675
111	0x3dbfe5f8	0.09370035
112	0x3d27d230	0.040971935
113	0x3d9ce2fc	0.07660481
114	0xbdaa4422	-0.083137766
115	0xbd76904c	-0.060196206
116	0xbdf884b5	-0.12134687
117	0xbc8efd12	-0.017454658
118	0xbd1ef1fd	-0.038804997
119	0x3d3af304	0.045641914
120	0x3d13f3ea	0.036121286
121	0xbd99c977	-0.075091295
122	0x3d579c3e	0.05263924
123	0xbcb5fe36	-0.022215944
124	0x3d7d6036	0.061859332
125	0xbdc6c272	-0.09705056
126	0xbdbed919	-0.09318752
127	0xbe1b9908	-0.15195096
128	0xbd054dcf	-0.032544907
129	0x3d255172	0.040360875
130	0xbd8fa16e	-0.07013212
131	0xbcbc0e79	-0.02295612
132	0xbd2bbd99	-0.04192886
133	0xbdddb823	-0.10826137
134	0xbd550b51	-0.052012745
135	0x3d2bb6d5	0.04192241
136	0xbe039e7a	-0.12853423
137	0xbdb6f5e7	-0.08933621
138	0x3d194b41	0.037425283
139	0x3d86e0af	0.06585824
140	0x3ddfb56d	0.10923276
141	0x3d95f0eb	0.07321342
142	0xbd5ec46d	-0.054386545
143	0xbdf73004	-0.12069705
144	0x3db1ecea	0.08687766
145	0x3de6b954	0.11265817
146	0x3cb6bdc3	0.022307282
147	0xbd93285e	-0.07185434
148	0xbdecd2cf	-0.11563646
149	0x3e09ba8e	0.13450071
150	0x3c7bad52	0.015361147
151	0x3e2ef46f	0.17085432
152	0x3c7bf7e4	0.015378926
153	0xbd6736f2	-0.056448884
154	0xbd8d5324	-0.069006234
155	0xbdc3efa7	-0.095671944
156	0x3ccb03c3	0.024782067
157	0xbdcc2889	-0.09968669
158	0x3b2cc39f	0.0026361716
159	0xbdca5704	-0.09879878
160	0xbe09a75e	-0.13442752
161	0x3d15e55c	0.036595687
162	0x3c92e25e	0.017930206
163	0xbc32f819	-0.010923409
164	0xbe1de61a	-0.15419808
165	0x3db337ec	0.087509006
166	0xbc139d1a	-0.009009624
167	0x3d769c96	0.060207926
168	0xbda9cd3b	-0.08291098
169	0x3e22fadb	0.15916006
170	0x3d21fd7f	0.039548393
171	0xbe1ae297	-0.151255
172	0xbd8644c2	-0.06556083
173	0xbd79357e	-0.06084203
174	0xbd844a88	-0.06459528
175	0xbc39b153	-0.011333781
176	0xbc7bff40	-0.015380681
177	0xbda30d12	-0.07961477
178	0xbce1af11	-0.027549298
179	0x3e148e82	0.14507487
180	0xbda2a29b	-0.07941171
181	0xbe34d108	-0.17657864
182	0x3e23cb9c	0.1599564
183	0xbdb1f6e5	-0.086896695
184	0xbd113c4f	-0.035457905
185	0x3dc7c50c	0.097543806
186	0x3d23b721	0.039969567
187	0xbe209d8a	-0.15685096
188	0xbdc18188	-0.09448534
189	0x3e26c263	0.1628509
190	0x3e0aec7c	0.13566774
191	0xbcaa5b98	-0.020795628
192	0x3d79d906	0.060997985
193	0xbdc2b2fb	-0.09506794
194	0x3df37a10	0.11888516
195	0x3e24c1e7	0.16089593
196	0xbdf69e17	-0.12041872
197	0xbe2b43d5	-0.16725095
198	0x3a9e647a	0.0012084388
199	0x3df0143b	0.11722609
200	0x3e1dde2b	0.15416782
201	0xbdd207d6	-0.10255401
202	0xbdc03ec6	-0.09386973
203	0xbb12bbf4	-0.002238986
204	0x3cc5b848	0.024135724
205	0x3e14a9e5	0.14517935
206	0xbe0a8340	-0.1352663
207	0xbd4398c5	-0.047753114
208	0xbe19d0c2	-0.15021041
209	0xbdbb9644	-0.0915952
210	0x3d0ad10e	0.033890776
211	0x3c63133c	0.013859566
212	0xbd3cfd8b	-0.046140235
213	0xbd01766e	-0.031607084
214	0xbd52624d	-0.05136328
215	0x3dd8fbf2	0.1059493
216	0x3d22e9b5	0.03977366
217	0x3c98a0b6	0.01863132
218	0x3ddf8754	0.10914484
219	0x3e12f370	0.14350677
220	0x3d8dabb7	0.06917518
221	0xbd37b22b	-0.04484765
222	0x3e1b4a22	0.15164998
223	0xbd6699e0	-0.05629909
224	0xbd7ae860	-0.061256766
225	0x3e10ba7e	0.14133641
226	0x3df1ef5d	0.11813233
227	0xbd8087a0	-0.062758684
228	0x3dfaf6e1	0.1225412
229	0xbe13addc	-0.14421791
230	0x3db76d5b	0.08956405
231	0x3e38d86d	0.1805131
232	0xbd374810	-0.04474646
233	0x3ce2074e	0.027591374
234	0xbb1e7010	-0.0024175681
235	0x3d2b1c6a	0.041775145
236	0xbcd4a630	-0.02595815
237	0x3c2f2b4a	0.010691473
238	0xbdb62cc8	-0.0889526
239	0x3d3df95f	0.046380397
240	0xbdce26e6	-0.10066013
241	0x3da26565	0.07929496
242	0xbd413342	-0.047168024
243	0xbdd09748	-0.101851046
244	0x3e004c36	0.12529072
245	0x3cd155a3	0.02555353
246	0x3d14e3d7	0.036350098
247	0xbde70ec6	-0.11282115
248	0xbd791e6c	-0.06082003
249	0x3d9d0f62	0.0766895
250	0x3db6f413	0.08933272
251	0x3c86ebc7	0.01646985
252	0x3da66a51	0.08125747
253	0x3ca62056	0.02027909
254	0xbe386b58	-0.18009698
255	0x3df05c6d	0.11736379

main.2.weight f4 [128, 256]
0	0x3db6e957	0.08931225
1	0xbcc8ebff	-0.024526594
2	0xbd2de460	-0.042454123
3	0x3d9d00cd	0.07666168
4	0x3d81f504	0.06345561
5	0x3d61ead8	0.055155605
6	0xbc916211	-0.017746957
7	0x3d72c1f9	0.059267018
8	0x3c29fe04	0.010375503
9	0x3e003745	0.12521084
10	0xbc93af39	-0.018027889
11	0xbdae5b23	-0.08513477
12	0xbc69b3f3	-0.014264095
13	0x3dea3802	0.11436464
14	0xbd89993d	-0.06718681
15	0x3c88ab3b	0.016683212
16	0xbd2d9254	-0.042375877
17	0xbcb4d0f6	-0.022072297
18	0xbd559978	-0.052148312
19	0x3d4b66d2	0.049658604
20	0x3c964a18	0.018345878
21	0x3d902bff	0.070396416
22	0xbc34930e	-0.011021389
23	0xb8d1cd18	-0.00010004098
24	0xbda19f5a	-0.07891722
25	0x3dc88f17	0.09792917
26	0x3b0a5523	0.0021107874
27	0x3d8ef9fc	0.069812745
28	0xbd130abd	-0.035898913
29	0xbd798559	-0.060918186
30	0x3d62c6f4	0.055365518
31	0x3d045ca9	0.03231493
32	0x3a51e4e0	0.00080068223
33	0x3d8856cd	0.06657181
34	0x3ca3d465	0.019998739
35	0xbd75b951	-0.059991185
36	0xbdce709f	-0.100800745
37	0xbd065524	-0.03279604
38	0x3cebd665	0.028788755
39	0xbdab36b5	-0.08360044
40	0x3cea4f36	0.028602224
41	0x3d8d90ba	0.0691237
42	0xbdae2be8	-0.08504468
43	0x3c577bb0	0.013152048
44	0xbd385ccf	-0.045010384
45	0x3dc8c6fa	0.09803577
46	0x3cda2258	0.026627705
47	0xbd927a0d	-0.071521856
48	0xbda0867e	-0.07838152
49	0x3d11bb81	0.03557921
50	0xbd749663	-0.059713732
51	0x3df01d1e	0.11724304
52	0x3d262f1b	0.040572267
53	0x3d4b640b	0.049655955
54	0x3d739dbc	0.0594766
55	0x3d4a55db	0.049398284
56	0x3bdf11e1	0.0068075513
57	0x3d0e7ae8	0.03478518
58	0x3d393312	0.04521472
59	0xbd097386	-0.033557437
60	0x3d0e969d	0.034811605
61	0xbcfdcbda	-0.030980993
62	0xbb79b3a0	-0.003810145
63	0xbc566799	-0.013086223
64	0x3c2538d8	0.010084353
65	0x3d868ca8	0.06569797
66	0xbcca1c8f	-0.02467182
67	0x3d970dac	0.073756546
68	0xbccf2de4	-0.025290437
69	0xbd1905bb	-0.03735898
70	0xbd66326a	-0.056200422
71	0x3e033a93	0.12815313
72	0x3d39d4dc	0.045369014
73	0x3db281c7	0.08716159
74	0x3dabf76b	0.083968006
75	0xba391178	-0.0007059793
76	0x3d434892	0.04767663
77	0xbd3176bc	-0.043326125
78	0xbe064b39	-0.13114633
79	0x3d738fe4	0.059463397
80	0x3d9fa72d	0.07795558
81	0x3dc089cc	0.09401283
82	0x3d202a35	0.03910275
83	0x3dc34b5c	0.09535858
84	0xbbccb968	-0.006247688
85	0xbd078e74	-0.03309484
86	0x3dc98617	0.09840029
87	0x3c8c593c	0.017132394
88	0xbd8b170f	-0.067915075
89	0x3dc3ff26	0.0957015
90	0x3bfe46c3	0.0077599003
91	0xbc38ed9d	-0.01128712
92	0x3e13370f	0.14376472
93	0xbda25671	-0.07926644
94	0x3ce26dd7	0.027640266
95	0xbdbaebd5	-0.09127013
96	0x3b3ae8cb	0.0028520103
97	0xbbd44091	-0.0064774235
98	0x3d8e3a9a	0.06944771
99	0x3ccd1b15	0.025037328
100	0x3afb941f	0.0019193924
101	0xbcbcde8d	-0.02305534
102	0xbd2dbe18	-0.042417616
103	0xbcbd5103	-0.023109918
104	0xbd8e95e1	-0.06962181
105	0x3c434011	0.01191713
106	0xbc890b85	-0.016729126
107	0x3d050c93	0.032482695
108	0x3b1d2d8f	0.0023983454
109	0x3d861a32	0.06547965
110	0xbc6175b2	-0.013760971
111	0x3d9f39fe	0.07774733
112	0xbcdf6fc6	-0.027274977
113	0xbda67f64	-0.081297666
114	0x3dbe8031	0.09301794
115	0x3d292f17	0.041304674
116	0xbb4c004d	-0.003112811
117	0xbd502ed0	-0.050825894
118	0x3b9b48ec	0.0047389176
119	0x3cbecbe6	0.023290586
120	0xbd6c9b33	-0.057765197
121	0x3d019c93	0.03164346
122	0xbcabf7c7	-0.020992173
123	0x3d5d8e05	0.05409052
124	0xbd2a8053	-0.041626286
125	0xbd6ada10	-0.057336867
126	0x3cbf1c3f	0.023328898
127	0xbd8bfe57	-0.06835621
128	0x3dcb10f8	0.09915346
129	0x3c4ad7e5	0.012380575
130	0x3d7bd5d4	0.06148322
131	0xbb0b1026	-0.0021219342
132	0xbd8a20bc	-0.06744525
133	0x3d5e23ac	0.054233238
134	0x3c9dfd8b	0.019285938
135	0xbc80e901	-0.015736105
136	0xbcac4f0c	-0.021033786
137	0xbd48f831	-0.04906482
138	0x3d615aa5	0.055018086
139	0xbcd77b3f	-0.026303886
140	0xbd7281ff	-0.059206005
141	0x3c216a3f	0.009851991
142	0xbd6a320b	-0.05717663
143	0xbb3ab0f8	-0.002848683
144	0x3d1abb60	0.03777635
145	0x3d19ba1a	0.037530996
146	0x3d3cee1a	0.04612551
147	0xbd298ed4	-0.041395977
148	0xbd69d52d	-0.057088066
149	0x3cafaf25	0.02144582
150	0x3e1e5c96	0.15465006
151	0x3d221d94	0.03957899
152	0x3ccce504	0.025011547
153	0xbdba4970	-0.09096038
154	0xbd6d7c74	-0.057980016
155	0x3c8efc37	0.01745425
156	0x3d51f763	0.051261317
157	0x3c9722ef	0.018449275
158	0xbd4f3a5b	-0.05059276
159	0x3d42d315	0.047564585
160	0xbc15fa8a	-0.009153971
161	0xbd127a02	-0.035760887
162	0xbd6ac513	-0.05731685
163	0x3b1dafa2	0.0024060984
164	0x3d089864	0.033348456
165	0x3c857850	0.016292721
166	0x3d0d966b	0.034567278
167	0x3dd3aaa5	0.10335282
168	0x3a2287ce	0.0006200046
169	0x3ccce453	0.025011217
170	0x3d088916	0.03333386
171	0xbcee7dbd	-0.029112691
172	0xbdd3d317	-0.103429966
173	0xbd0a5104	-0.03376867
174	0xbd06401f	-0.032775994
175	0x3d05fd6d	0.03271239
176	0xbcbcd4a8	-0.023050621
177	0xbd14e53e	-0.036351435
178	0xbd51d5c0	-0.05122924
179	0xbd52a795	-0.05142935
180	0x3c2ab87a	0.010419959
181	0x3bce35e2	0.0062930444
182	0x3daa3ed4	0.08312765
183	0xbd95d7d0	-0.073165536
184	0x3c9ffd9d	0.019530112
185	0xbd3d2224	-0.046175137
186	0x3b12af7a	0.0022382424
187	0x3b86dbb8	0.004115548
188	0x3da85535	0.08219377
189	0x3a97f9f9	0.0011594883
190	0x3b0354df	0.00200396
191	0xbcfae773	-0.030627942
192	0xbd89ac97	-0.06722372
193	0xbbb6335a	-0.005560321
194	0x3d03e17c	0.03219746
195	0x3d730f9c	0.059341058
196	0x3d6b80f2	0.05749602
197	0xbdc5154b	-0.09623202
198	0x3cbd1cdd	0.023085052
199	0x3d09e05d	0.033661235
200	0xbd0439ff	-0.032281872
201	0x3d0560fe	0.032563202
202	0x3d67d81d	0.056602586
203	0x3d202546	0.039098047
204	0x3dfe9861	0.12431408
205	0x3d9ff8ef	0.07811152
206	0xbd780dbd	-0.060559977
207	0x3cf38621	0.029727044
208	0x3da8f68a	0.082501486
209	0xbba1c1f7	-0.0049364525
210	0xbdf1e97c	-0.11812112
211	0xbd5e5688	-0.05428174
212	0x3d9a2d89	0.075282164
213	0xbba5605b	-0.005046887
214	0xbc8757c6	-0.016521346
215	0xbc8e3923	-0.01736123
216	0xbbb0ca71	-0.0053952266
217	0xbce4e7ea	-0.027942616
218	0x3d7cd65b	0.061727863
219	0xbddf0155	-0.10888926
220	0x3b175703	0.0023092635
221	0xbbd41719	-0.00647248
222	0xbcb1ee3c	-0.021720044
223	0x3ca0853c	0.019594781
224	0x3da42860	0.080155134
225	0x3c6df1f2	0.014523016
226	0x3d367fcc	0.04455547
227	0x3c33a339	0.010964208
228	0x38c2b1e3	9.283775e-05
229	0xbdbf0b9c	-0.09328386
230	0x3d14ad47	0.036298063
231	0x3ad8e748	0.0016548419
232	0xbd605251	-0.054766003
233	0xbc7d82c9	-0.015473076
234	0xbdce2744	-0.10066083
235	0xbd4b90b2	-0.04969854
236	0xbcd83146	-0.026390683
237	0xbd0eb3e6	-0.034839533
238	0x3c629037	0.013828329
239	0x3d7db516	0.061940275
240	0x3d8ef7c2	0.0698085
241	0x3bb19a79	0.005420026
242	0x3c06af04	0.008220438
243	0xbca056a4	-0.019572563
244	0x3dd8e2ee	0.105901584
245	0xbd5f0b36	-0.05445405
246	0x3c964676	0.018344145
247	0x3c6325cf	0.013863995
248	0xbdf8626a	-0.12128146
249	0xbc4acc9a	-0.012377882
250	0xbdee8703	-0.11646845
251	0x3d229d4c	0.03970079
252	0x3e00f0a9	0.12591805
253	0xbcbb66a1	-0.022876086
254	0x3ccc9721	0.024974408
255	0x3d1f0267	0.03882065

main.2.bias f4 [128]
0	0x3c46a229	0.012123623
1	0xbd63d12e	-0.05561941
2	0xbcba0551	-0.022707613
3	0x3d47ee7e	0.04881143
4	0xbd1d7d49	-0.03844956
5	0xbccf0db8	-0.025275096
6	0x3cded317	0.027200265
7	0xbc8d38a5	-0.017238924
8	0x3c7f7b86	0.015593415
9	0x3c98bf44	0.01864589
10	0x3d784930	0.060616672
11	0xbd606aef	-0.05478948
12	0x3cbada2c	0.02280911
13	0x3ccf8e8b	0.025336524
14	0xbd2587c8	-0.040412694
15	0xbbb3c227	-0.0054857912
16	0xbc1ec95c	-0.0096915625
17	0xbc70a3a7	-0.014687455
18	0xbd8ed91e	-0.069750056
19	0xbcbf917f	-0.023384808
20	0xbd177a6c	-0.036981985
21	0xbd586a76	-0.052835904
22	0x3d42373a	0.04741595
23	0xbce7cddb	-0.028296402
24	0xbd66d65a	-0.056356765
25	0x3c96eb86	0.018422853
26	0x3d120a09	0.0356541
27	0xbc988f42	-0.018622998
28	0xbca28018	-0.01983647
29	0x3d0f89d3	0.03504355
30	0xbd3d95f7	-0.046285596
31	0x3d25ef6c	0.040511534
32	0x3c158bb4	0.009127546
33	0x3d26f3af	0.04075974
34	0x3cf06daf	0.029349176
35	0x3ba1b2c1	0.004934639
36	0xbd60f032	-0.054916568
37	0xbc9ddbd9	-0.01926987
38	0xbd38c533	-0.04510994
39	0x3d15e5c3	0.03659607
40	0x3d369ad1	0.04458124
41	0xbd119376	-0.03554102
42	0x3d5b96ea	0.05361072
43	0xbd83f99b	-0.06444093
44	0xbd5527ca	-0.0520399
45	0x3c67dba9	0.014151492
46	0xbccf9853	-0.025341189
47	0x3d2dec4b	0.042461675
48	0xbd7ba439	-0.06143591
49	0x3d111871	0.0354237
50	0x3c8232a0	0.01589328
51	0xbcd436c1	-0.025905015
52	0xbbdd4a34	-0.0067532305
53	0xbd27c76c	-0.040961668
54	0xbd7bc43d	-0.061466444
55	0xbcf25963	-0.029583639
56	0x3b467b20	0.003028579
57	0xbd213a0f	-0.03936201
58	0x3d416600	0.047216415
59	0x3d49aea0	0.0492388
60	0xbc479826	-0.012182271
61	0x3cf62028	0.03004463
62	0xbc1914c7	-0.009343333
63	0xbd2d0dec	-0.042249605
64	0xbd59ea8f	-0.053202208
65	0x3d613b05	0.054987926
66	0xbd0cf9b9	-0.03441784
67	0x3c616156	0.013756117
68	0xbd2e6483	-0.042576324
69	0xbc399638	-0.011327319
70	0x3d2553ed	0.04036324
71	0x3cdb5e57	0.026778383
72	0x3d075c81	0.033047203
73	0x3cddc3f0	0.02707097
74	0xbd8e3182	-0.069430366
75	0x3c12f3c7	0.008969254
76	0x3c460068	0.012085058
77	0xbd4ced46	-0.05003097
78	0x3d151ad7	0.03640255
79	0x3d4cf54f	0.050038632
80	0x3ca01faf	0.019546358
81	0x3972ec79	0.00023167011
82	0x3c56e9db	0.013117279
83	0x3d4b26fe	0.049597733
84	0xbd71605f	-0.058929797
85	0xba57fcf9	-0.0008239295
86	0xbcac3e9a	-0.021025945
87	0xbd23e419	-0.040012453
88	0xba0e4fa3	-0.0005428737
89	0x3c79e085	0.0152512835
90	0x3cb5e7a1	0.022205176
91	0x3ccbee31	0.024893852
92	0x3d57c260	0.052675605
93	0xbbb7a5ea	-0.0056044953
94	0xbc9a2f01	-0.018821241
95	0x3b6c1620	0.003602393
96	0xbd087939	-0.033318732
97	0xbd270a4e	-0.04078131
98	0x3a0b41a0	0.0005312208
99	0xbc2ca5e8	-0.010537602
100	0x3d065b6b	0.032802027
101	0x3cfe68f2	0.031055901
102	0xbc729c15	-0.014807721
103	0x3c7e7146	0.015529936
104	0x3c6bf176	0.0144008305
105	0x3a8ec881	0.0010893495
106	0x3d14ff7a	0.036376454
107	0xbd5523f1	-0.05203623
108	0xbd30e8f4	-0.04319091
109	0xbcd1491b	-0.025547555
110	0xb9638aa6	-0.00021700058
111	0xbd94cae1	-0.072652586
112	0x3c1c71fc	0.00954866
113	0xbbeecdc3	-0.0072877123
114	0x3bd53ab1	0.0065072407
115	0xbdaaebac	-0.08345732
116	0xbb7be327	-0.0038434954
117	0xbd5bb6a3	-0.053640973
118	0xbd81f95d	-0.063463904
119	0xbc720a9c	-0.014773037
120	0x3cd01974	0.025402762
121	0xbc4ef1dd	-0.012630907
122	0x3cbf792d	0.02337321
123	0xbda603cc	-0.08106193
124	0xbd03cf22	-0.03217996
125	0x3d1fc064	0.039001837
126	0x3d4ed101	0.05049229
127	0xbc12474c	-0.008928131

main.4.weight f4 [1, 128]
0	0x3c2174c7	0.009854502
1	0xbb3e68a1	-0.0029054063
2	0xbcbd61bf	-0.023117898
3	0xbc91c574	-0.017794348
4	0x3c2857af	0.010274812
5	0xbb34eb93	-0.0027606233
6	0x3b1d3e7e	0.0023993547
7	0xbbe74e7c	-0.0070589166
8	0xbabd52dd	-0.0014444251
9	0xbc996a62	-0.018727485
10	0xbac56b36	-0.0015061859
11	0x3be7632c	0.0070613828
12	0x3b9f8420	0.0048680454
13	0x3c2edbac	0.010672491
14	0xbc0edde7	-0.008719898
15	0x3c1b11f5	0.0094647305
16	0x3c3b01ba	0.011413986
17	0xbc14765e	-0.009061424
18	0xbb605510	-0.0034230389
19	0xbc3d92e1	-0.011570663
20	0xbb3003e3	-0.0026857785
21	0x3cc44965	0.023960778
22	0x3b62a29a	0.0034581781
23	0xba390308	-0.00070576416
24	0xbb13fb92	-0.0022580368
25	0x3c1564b0	0.009118244
26	0x3c634436	0.013871243
27	0xbc61c90b	-0.013780843
28	0xba86015d	-0.0010223795
29	0x3b0370ab	0.002005617
30	0xbcac9595	-0.02106742
31	0x3b81637b	0.0039486266
32	0xba9741ef	-0.0011540035
33	0x3a9eade3	0.0012106266
34	0x3b372ed6	0.00279515
35	0x3ba8dd7c	0.005153356
36	0xbc8c83c2	-0.01715267
37	0xbc1fcfae	-0.009754105
38	0x3bb1c396	0.005424927
39	0xbb055396	-0.002034401
40	0xbba910ca	-0.005159472
41	0xbb26519d	-0.0025378235
42	0x3c159917	0.009130738
43	0x3ad8dc03	0.0016545061
44	0x3c06b960	0.008222908
45	0x3a506ad7	0.00079504907
46	0xbc415bba	-0.0118016545
47	0x3b6a87a3	0.0035786412
48	0xbbd072e9	-0.0063613546
49	0xbb9a0e09	-0.00470138
50	0x3c165046	0.009174412
51	0x3c59f730	0.013303563
52	0xbc9423c8	-0.018083468
53	0x3c723f60	0.014785618
54	0xba4df331	-0.0007856368
55	0x3aef4b3a	0.0018256672
56	0xbbdf06de	-0.0068062386
57	0xbc4bcc1f	-0.012438803
58	0xb8fd5e79	-0.00012081577
59	0x3c548092	0.012970107
60	0x3c988101	0.018616201
61	0xbc218e49	-0.009860584
62	0xbb2ea614	-0.0026649283
63	0xbc0cfeff	-0.008605718
64	0x3ae6cf25	0.0017609341
65	0x3cb31a8c	0.021863244
66	0xbbb1f41e	-0.0054307124
67	0xba3f9f04	-0.0007309767
68	0xbc95b1da	-0.018273283
69	0x3b1b4b28	0.002369592
70	0x3b0b6a0f	0.0021272933
71	0x3b997035	0.0046825656
72	0x3ad0ffa8	0.0015945332
73	0x3996a2eb	0.00028731613
74	0x3bd8d127	0.00661673
75	0xbc0a3a4e	-0.0084367525
76	0x3a334635	0.000683877
77	0xbc884e0c	-0.016638778
78	0xbbcf2804	-0.006321909
79	0x3bda4e48	0.006662164
80	0x3b7579e0	0.0037456676
81	0xbaeacbb5	-0.0017913493
82	0xbaaf7e77	-0.001338913
83	0xba576aa6	-0.0008217491
84	0x3b197943	0.0023418225
85	0x3c240af3	0.010012376
86	0xbb6467cc	-0.0034851907
87	0xbbc3023b	-0.0059511936
88	0xba90c07d	-0.0011043694
89	0xbbcb399b	-0.0062019355
90	0xbb8f4b29	-0.0043729735
91	0x3b84a20d	0.0040476383
92	0xbc465d57	-0.012107215
93	0x3b498a35	0.0030752544
94	0xbaed4f4b	-0.0018105296
95	0x3c5c96d2	0.013463693
96	0xba854353	-0.0010167159
97	0x3bcb2ae0	0.0062001795
98	0xbc0b9290	-0.00851883
99	0xba1bb4b3	-0.0005939707
100	0x3a3b5436	0.00071460323
101	0x3d71bdb7	0.059018817
102	0x3cba9397	0.022775454
103	0x3b74832c	0.003730963
104	0x3b7edf5e	0.0038890461
105	0x3c7d3e1f	0.015456705
106	0xbbaf8b20	-0.005357161
107	0xbbd325b8	-0.0064437054
108	0xbba627a2	-0.0050706426
109	0x398c9c80	0.00026819482
110	0x3bcd9165	0.006273436
111	0xbb011217	-0.001969462
112	0xbb8170d3	-0.0039502173
113	0x3bafc3d2	0.00536392
114	0x3b23c910	0.0024991669
115	0x3c8f5fe9	0.017501788
116	0x3af826fc	0.0018932517
117	0x3a8cc220	0.0010739006
118	0xbb5d359e	-0.0033753882
119	0x3a954fe7	0.0011391611
120	0x3b2823fa	0.002565621
121	0x3bb26d15	0.0054451325
122	0xbd6c3e17	-0.0576764
123	0xbbf0f798	-0.007353734
124	0x3cd41c11	0.02589229
125	0x3b61d003	0.003445626
126	0xba30376c	-0.00067221257
127	0x3b1cf37e	0.0023948844
